WARNING: Logging before InitGoogleLogging() is written to STDERR
I0309 22:24:13.938015 40517 net.cpp:49] Initializing net from parameters: 
name: "CaffeNet"
input: "data"
state {
  phase: TEST
}
input_shape {
  dim: 10
  dim: 3
  dim: 227
  dim: 227
}
layer {
  name: "conv1"
  type: "Convolution"
  bottom: "data"
  top: "conv1"
  convolution_param {
    num_output: 96
    kernel_size: 11
    stride: 4
  }
}
layer {
  name: "relu1"
  type: "ReLU"
  bottom: "conv1"
  top: "conv1"
}
layer {
  name: "pool1"
  type: "Pooling"
  bottom: "conv1"
  top: "pool1"
  pooling_param {
    pool: MAX
    kernel_size: 3
    stride: 2
  }
}
layer {
  name: "norm1"
  type: "LRN"
  bottom: "pool1"
  top: "norm1"
  lrn_param {
    local_size: 5
    alpha: 0.0001
    beta: 0.75
  }
}
layer {
  name: "conv2"
  type: "Convolution"
  bottom: "norm1"
  top: "conv2"
  convolution_param {
    num_output: 256
    pad: 2
    kernel_size: 5
    group: 2
  }
}
layer {
  name: "relu2"
  type: "ReLU"
  bottom: "conv2"
  top: "conv2"
}
layer {
  name: "pool2"
  type: "Pooling"
  bottom: "conv2"
  top: "pool2"
  pooling_param {
    pool: MAX
    kernel_size: 3
    stride: 2
  }
}
layer {
  name: "norm2"
  type: "LRN"
  bottom: "pool2"
  top: "norm2"
  lrn_param {
    local_size: 5
    alpha: 0.0001
    beta: 0.75
  }
}
layer {
  name: "conv3"
  type: "Convolution"
  bottom: "norm2"
  top: "conv3"
  convolution_param {
    num_output: 384
    pad: 1
    kernel_size: 3
  }
}
layer {
  name: "relu3"
  type: "ReLU"
  bottom: "conv3"
  top: "conv3"
}
layer {
  name: "conv4"
  type: "Convolution"
  bottom: "conv3"
  top: "conv4"
  convolution_param {
    num_output: 384
    pad: 1
    kernel_size: 3
    group: 2
  }
}
layer {
  name: "relu4"
  type: "ReLU"
  bottom: "conv4"
  top: "conv4"
}
layer {
  name: "conv5"
  type: "Convolution"
  bottom: "conv4"
  top: "conv5"
  convolution_param {
    num_output: 256
    pad: 1
    kernel_size: 3
    group: 2
  }
}
layer {
  name: "relu5"
  type: "ReLU"
  bottom: "conv5"
  top: "conv5"
}
layer {
  name: "pool5"
  type: "Pooling"
  bottom: "conv5"
  top: "pool5"
  pooling_param {
    pool: MAX
    kernel_size: 3
    stride: 2
  }
}
layer {
  name: "fc6"
  type: "InnerProduct"
  bottom: "pool5"
  top: "fc6"
  inner_product_param {
    num_output: 4096
  }
}
layer {
  name: "relu6"
  type: "ReLU"
  bottom: "fc6"
  top: "fc6"
}
layer {
  name: "drop6"
  type: "Dropout"
  bottom: "fc6"
  top: "fc6"
  dropout_param {
    dropout_ratio: 0.5
  }
}
layer {
  name: "fc7"
  type: "InnerProduct"
  bottom: "fc6"
  top: "fc7"
  inner_product_param {
    num_output: 4096
  }
}
layer {
  name: "relu7"
  type: "ReLU"
  bottom: "fc7"
  top: "fc7"
}
layer {
  name: "drop7"
  type: "Dropout"
  bottom: "fc7"
  top: "fc7"
  dropout_param {
    dropout_ratio: 0.5
  }
}
layer {
  name: "fc8_25"
  type: "InnerProduct"
  bottom: "fc7"
  top: "fc8_25"
  inner_product_param {
    num_output: 25
  }
}
layer {
  name: "prob"
  type: "Softmax"
  bottom: "fc8_25"
  top: "prob"
}
I0309 22:24:13.938287 40517 net.cpp:413] Input 0 -> data
I0309 22:24:13.938436 40517 layer_factory.hpp:77] Creating layer conv1
I0309 22:24:13.938509 40517 net.cpp:106] Creating Layer conv1
I0309 22:24:13.938534 40517 net.cpp:454] conv1 <- data
I0309 22:24:13.938558 40517 net.cpp:411] conv1 -> conv1
I0309 22:24:13.938870 40517 net.cpp:150] Setting up conv1
I0309 22:24:13.938920 40517 net.cpp:157] Top shape: 10 96 55 55 (2904000)
I0309 22:24:13.938942 40517 net.cpp:165] Memory required for data: 11616000
I0309 22:24:13.939016 40517 layer_factory.hpp:77] Creating layer relu1
I0309 22:24:13.939044 40517 net.cpp:106] Creating Layer relu1
I0309 22:24:13.939067 40517 net.cpp:454] relu1 <- conv1
I0309 22:24:13.939093 40517 net.cpp:397] relu1 -> conv1 (in-place)
I0309 22:24:13.939121 40517 net.cpp:150] Setting up relu1
I0309 22:24:13.939146 40517 net.cpp:157] Top shape: 10 96 55 55 (2904000)
I0309 22:24:13.939167 40517 net.cpp:165] Memory required for data: 23232000
I0309 22:24:13.939188 40517 layer_factory.hpp:77] Creating layer pool1
I0309 22:24:13.939213 40517 net.cpp:106] Creating Layer pool1
I0309 22:24:13.939250 40517 net.cpp:454] pool1 <- conv1
I0309 22:24:13.939278 40517 net.cpp:411] pool1 -> pool1
I0309 22:24:13.939376 40517 net.cpp:150] Setting up pool1
I0309 22:24:13.939402 40517 net.cpp:157] Top shape: 10 96 27 27 (699840)
I0309 22:24:13.939424 40517 net.cpp:165] Memory required for data: 26031360
I0309 22:24:13.939445 40517 layer_factory.hpp:77] Creating layer norm1
I0309 22:24:13.939470 40517 net.cpp:106] Creating Layer norm1
I0309 22:24:13.939491 40517 net.cpp:454] norm1 <- pool1
I0309 22:24:13.939517 40517 net.cpp:411] norm1 -> norm1
I0309 22:24:13.939574 40517 net.cpp:150] Setting up norm1
I0309 22:24:13.939600 40517 net.cpp:157] Top shape: 10 96 27 27 (699840)
I0309 22:24:13.939621 40517 net.cpp:165] Memory required for data: 28830720
I0309 22:24:13.939642 40517 layer_factory.hpp:77] Creating layer conv2
I0309 22:24:13.939669 40517 net.cpp:106] Creating Layer conv2
I0309 22:24:13.939692 40517 net.cpp:454] conv2 <- norm1
I0309 22:24:13.939715 40517 net.cpp:411] conv2 -> conv2
I0309 22:24:13.940346 40517 net.cpp:150] Setting up conv2
I0309 22:24:13.940379 40517 net.cpp:157] Top shape: 10 256 27 27 (1866240)
I0309 22:24:13.940402 40517 net.cpp:165] Memory required for data: 36295680
I0309 22:24:13.940429 40517 layer_factory.hpp:77] Creating layer relu2
I0309 22:24:13.940457 40517 net.cpp:106] Creating Layer relu2
I0309 22:24:13.940480 40517 net.cpp:454] relu2 <- conv2
I0309 22:24:13.940503 40517 net.cpp:397] relu2 -> conv2 (in-place)
I0309 22:24:13.940528 40517 net.cpp:150] Setting up relu2
I0309 22:24:13.940552 40517 net.cpp:157] Top shape: 10 256 27 27 (1866240)
I0309 22:24:13.940573 40517 net.cpp:165] Memory required for data: 43760640
I0309 22:24:13.940593 40517 layer_factory.hpp:77] Creating layer pool2
I0309 22:24:13.940616 40517 net.cpp:106] Creating Layer pool2
I0309 22:24:13.940637 40517 net.cpp:454] pool2 <- conv2
I0309 22:24:13.940664 40517 net.cpp:411] pool2 -> pool2
I0309 22:24:13.940692 40517 net.cpp:150] Setting up pool2
I0309 22:24:13.940717 40517 net.cpp:157] Top shape: 10 256 13 13 (432640)
I0309 22:24:13.940738 40517 net.cpp:165] Memory required for data: 45491200
I0309 22:24:13.940758 40517 layer_factory.hpp:77] Creating layer norm2
I0309 22:24:13.940781 40517 net.cpp:106] Creating Layer norm2
I0309 22:24:13.940803 40517 net.cpp:454] norm2 <- pool2
I0309 22:24:13.940832 40517 net.cpp:411] norm2 -> norm2
I0309 22:24:13.940861 40517 net.cpp:150] Setting up norm2
I0309 22:24:13.940886 40517 net.cpp:157] Top shape: 10 256 13 13 (432640)
I0309 22:24:13.940907 40517 net.cpp:165] Memory required for data: 47221760
I0309 22:24:13.940927 40517 layer_factory.hpp:77] Creating layer conv3
I0309 22:24:13.940956 40517 net.cpp:106] Creating Layer conv3
I0309 22:24:13.940980 40517 net.cpp:454] conv3 <- norm2
I0309 22:24:13.941005 40517 net.cpp:411] conv3 -> conv3
I0309 22:24:13.943210 40517 net.cpp:150] Setting up conv3
I0309 22:24:13.943246 40517 net.cpp:157] Top shape: 10 384 13 13 (648960)
I0309 22:24:13.943269 40517 net.cpp:165] Memory required for data: 49817600
I0309 22:24:13.943296 40517 layer_factory.hpp:77] Creating layer relu3
I0309 22:24:13.943321 40517 net.cpp:106] Creating Layer relu3
I0309 22:24:13.943343 40517 net.cpp:454] relu3 <- conv3
I0309 22:24:13.943367 40517 net.cpp:397] relu3 -> conv3 (in-place)
I0309 22:24:13.943392 40517 net.cpp:150] Setting up relu3
I0309 22:24:13.943415 40517 net.cpp:157] Top shape: 10 384 13 13 (648960)
I0309 22:24:13.943436 40517 net.cpp:165] Memory required for data: 52413440
I0309 22:24:13.943457 40517 layer_factory.hpp:77] Creating layer conv4
I0309 22:24:13.943483 40517 net.cpp:106] Creating Layer conv4
I0309 22:24:13.943506 40517 net.cpp:454] conv4 <- conv3
I0309 22:24:13.943528 40517 net.cpp:411] conv4 -> conv4
I0309 22:24:13.944772 40517 net.cpp:150] Setting up conv4
I0309 22:24:13.944804 40517 net.cpp:157] Top shape: 10 384 13 13 (648960)
I0309 22:24:13.944833 40517 net.cpp:165] Memory required for data: 55009280
I0309 22:24:13.944857 40517 layer_factory.hpp:77] Creating layer relu4
I0309 22:24:13.944882 40517 net.cpp:106] Creating Layer relu4
I0309 22:24:13.944917 40517 net.cpp:454] relu4 <- conv4
I0309 22:24:13.944944 40517 net.cpp:397] relu4 -> conv4 (in-place)
I0309 22:24:13.944972 40517 net.cpp:150] Setting up relu4
I0309 22:24:13.944996 40517 net.cpp:157] Top shape: 10 384 13 13 (648960)
I0309 22:24:13.945018 40517 net.cpp:165] Memory required for data: 57605120
I0309 22:24:13.945037 40517 layer_factory.hpp:77] Creating layer conv5
I0309 22:24:13.945065 40517 net.cpp:106] Creating Layer conv5
I0309 22:24:13.945087 40517 net.cpp:454] conv5 <- conv4
I0309 22:24:13.945111 40517 net.cpp:411] conv5 -> conv5
I0309 22:24:13.946243 40517 net.cpp:150] Setting up conv5
I0309 22:24:13.946275 40517 net.cpp:157] Top shape: 10 256 13 13 (432640)
I0309 22:24:13.946297 40517 net.cpp:165] Memory required for data: 59335680
I0309 22:24:13.946327 40517 layer_factory.hpp:77] Creating layer relu5
I0309 22:24:13.946353 40517 net.cpp:106] Creating Layer relu5
I0309 22:24:13.946377 40517 net.cpp:454] relu5 <- conv5
I0309 22:24:13.946401 40517 net.cpp:397] relu5 -> conv5 (in-place)
I0309 22:24:13.946427 40517 net.cpp:150] Setting up relu5
I0309 22:24:13.946451 40517 net.cpp:157] Top shape: 10 256 13 13 (432640)
I0309 22:24:13.946472 40517 net.cpp:165] Memory required for data: 61066240
I0309 22:24:13.946493 40517 layer_factory.hpp:77] Creating layer pool5
I0309 22:24:13.946516 40517 net.cpp:106] Creating Layer pool5
I0309 22:24:13.946537 40517 net.cpp:454] pool5 <- conv5
I0309 22:24:13.946560 40517 net.cpp:411] pool5 -> pool5
I0309 22:24:13.946588 40517 net.cpp:150] Setting up pool5
I0309 22:24:13.946614 40517 net.cpp:157] Top shape: 10 256 6 6 (92160)
I0309 22:24:13.946635 40517 net.cpp:165] Memory required for data: 61434880
I0309 22:24:13.946655 40517 layer_factory.hpp:77] Creating layer fc6
I0309 22:24:13.946697 40517 net.cpp:106] Creating Layer fc6
I0309 22:24:13.946722 40517 net.cpp:454] fc6 <- pool5
I0309 22:24:13.946745 40517 net.cpp:411] fc6 -> fc6
I0309 22:24:14.009232 40517 net.cpp:150] Setting up fc6
I0309 22:24:14.009356 40517 net.cpp:157] Top shape: 10 4096 (40960)
I0309 22:24:14.009377 40517 net.cpp:165] Memory required for data: 61598720
I0309 22:24:14.009407 40517 layer_factory.hpp:77] Creating layer relu6
I0309 22:24:14.009443 40517 net.cpp:106] Creating Layer relu6
I0309 22:24:14.009467 40517 net.cpp:454] relu6 <- fc6
I0309 22:24:14.009492 40517 net.cpp:397] relu6 -> fc6 (in-place)
I0309 22:24:14.009522 40517 net.cpp:150] Setting up relu6
I0309 22:24:14.009546 40517 net.cpp:157] Top shape: 10 4096 (40960)
I0309 22:24:14.009568 40517 net.cpp:165] Memory required for data: 61762560
I0309 22:24:14.009589 40517 layer_factory.hpp:77] Creating layer drop6
I0309 22:24:14.009614 40517 net.cpp:106] Creating Layer drop6
I0309 22:24:14.009635 40517 net.cpp:454] drop6 <- fc6
I0309 22:24:14.009660 40517 net.cpp:397] drop6 -> fc6 (in-place)
I0309 22:24:14.009687 40517 net.cpp:150] Setting up drop6
I0309 22:24:14.009711 40517 net.cpp:157] Top shape: 10 4096 (40960)
I0309 22:24:14.009732 40517 net.cpp:165] Memory required for data: 61926400
I0309 22:24:14.009753 40517 layer_factory.hpp:77] Creating layer fc7
I0309 22:24:14.009778 40517 net.cpp:106] Creating Layer fc7
I0309 22:24:14.009800 40517 net.cpp:454] fc7 <- fc6
I0309 22:24:14.009829 40517 net.cpp:411] fc7 -> fc7
I0309 22:24:14.037961 40517 net.cpp:150] Setting up fc7
I0309 22:24:14.038086 40517 net.cpp:157] Top shape: 10 4096 (40960)
I0309 22:24:14.038110 40517 net.cpp:165] Memory required for data: 62090240
I0309 22:24:14.038137 40517 layer_factory.hpp:77] Creating layer relu7
I0309 22:24:14.038169 40517 net.cpp:106] Creating Layer relu7
I0309 22:24:14.038194 40517 net.cpp:454] relu7 <- fc7
I0309 22:24:14.038219 40517 net.cpp:397] relu7 -> fc7 (in-place)
I0309 22:24:14.038249 40517 net.cpp:150] Setting up relu7
I0309 22:24:14.038274 40517 net.cpp:157] Top shape: 10 4096 (40960)
I0309 22:24:14.038295 40517 net.cpp:165] Memory required for data: 62254080
I0309 22:24:14.038316 40517 layer_factory.hpp:77] Creating layer drop7
I0309 22:24:14.038339 40517 net.cpp:106] Creating Layer drop7
I0309 22:24:14.038362 40517 net.cpp:454] drop7 <- fc7
I0309 22:24:14.038415 40517 net.cpp:397] drop7 -> fc7 (in-place)
I0309 22:24:14.038446 40517 net.cpp:150] Setting up drop7
I0309 22:24:14.038470 40517 net.cpp:157] Top shape: 10 4096 (40960)
I0309 22:24:14.038491 40517 net.cpp:165] Memory required for data: 62417920
I0309 22:24:14.038512 40517 layer_factory.hpp:77] Creating layer fc8_25
I0309 22:24:14.038537 40517 net.cpp:106] Creating Layer fc8_25
I0309 22:24:14.038559 40517 net.cpp:454] fc8_25 <- fc7
I0309 22:24:14.038583 40517 net.cpp:411] fc8_25 -> fc8_25
I0309 22:24:14.038826 40517 net.cpp:150] Setting up fc8_25
I0309 22:24:14.038858 40517 net.cpp:157] Top shape: 10 25 (250)
I0309 22:24:14.038879 40517 net.cpp:165] Memory required for data: 62418920
I0309 22:24:14.038904 40517 layer_factory.hpp:77] Creating layer prob
I0309 22:24:14.038933 40517 net.cpp:106] Creating Layer prob
I0309 22:24:14.038955 40517 net.cpp:454] prob <- fc8_25
I0309 22:24:14.038978 40517 net.cpp:411] prob -> prob
I0309 22:24:14.039007 40517 net.cpp:150] Setting up prob
I0309 22:24:14.039034 40517 net.cpp:157] Top shape: 10 25 (250)
I0309 22:24:14.039057 40517 net.cpp:165] Memory required for data: 62419920
I0309 22:24:14.039077 40517 net.cpp:228] prob does not need backward computation.
I0309 22:24:14.039099 40517 net.cpp:228] fc8_25 does not need backward computation.
I0309 22:24:14.039120 40517 net.cpp:228] drop7 does not need backward computation.
I0309 22:24:14.039141 40517 net.cpp:228] relu7 does not need backward computation.
…
