…
I0309 20:32:42.850183 43592 net.cpp:313] The NetState phase (0) differed from the phase (1) specified by a rule in layer accuracy
I0309 20:32:42.858258 43592 net.cpp:49] Initializing net from parameters: 
name: "CaffeNet"
state {
  phase: TRAIN
}
layer {
  name: "data"
  type: "Data"
  top: "data"
  top: "label"
  include {
    phase: TRAIN
  }
  transform_param {
    mirror: true
    crop_size: 227
    mean_file: "data/imagenet25/imagenet25_mean.protobinary"
  }
  data_param {
    source: "examples/imagenet25/train_lmdb"
    batch_size: 256
    backend: LMDB
  }
}
layer {
  name: "conv1"
  type: "Convolution"
  bottom: "data"
  top: "conv1"
  param {
    lr_mult: 0.1
    decay_mult: 1
  }
  param {
    lr_mult: 0.2
    decay_mult: 0
  }
  convolution_param {
    num_output: 96
    kernel_size: 11
    stride: 4
    weight_filler {
      type: "gaussian"
      std: 0.01
    }
    bias_filler {
      type: "constant"
      value: 0
    }
  }
}
layer {
  name: "relu1"
  type: "ReLU"
  bottom: "conv1"
  top: "conv1"
}
layer {
  name: "pool1"
  type: "Pooling"
  bottom: "conv1"
  top: "pool1"
  pooling_param {
    pool: MAX
    kernel_size: 3
    stride: 2
  }
}
layer {
  name: "norm1"
  type: "LRN"
  bottom: "pool1"
  top: "norm1"
  lrn_param {
    local_size: 5
    alpha: 0.0001
    beta: 0.75
  }
}
layer {
  name: "conv2"
  type: "Convolution"
  bottom: "norm1"
  top: "conv2"
  param {
    lr_mult: 0.1
    decay_mult: 1
  }
  param {
    lr_mult: 0.2
    decay_mult: 0
  }
  convolution_param {
    num_output: 256
    pad: 2
    kernel_size: 5
    group: 2
    weight_filler {
      type: "gaussian"
      std: 0.01
    }
    bias_filler {
      type: "constant"
      value: 1
    }
  }
}
layer {
  name: "relu2"
  type: "ReLU"
  bottom: "conv2"
  top: "conv2"
}
layer {
  name: "pool2"
  type: "Pooling"
  bottom: "conv2"
  top: "pool2"
  pooling_param {
    pool: MAX
    kernel_size: 3
    stride: 2
  }
}
layer {
  name: "norm2"
  type: "LRN"
  bottom: "pool2"
  top: "norm2"
  lrn_param {
    local_size: 5
    alpha: 0.0001
    beta: 0.75
  }
}
layer {
  name: "conv3"
  type: "Convolution"
  bottom: "norm2"
  top: "conv3"
  param {
    lr_mult: 0.1
    decay_mult: 1
  }
  param {
    lr_mult: 0.2
    decay_mult: 0
  }
  convolution_param {
    num_output: 384
    pad: 1
    kernel_size: 3
    weight_filler {
      type: "gaussian"
      std: 0.01
    }
    bias_filler {
      type: "constant"
      value: 0
    }
  }
}
layer {
  name: "relu3"
  type: "ReLU"
  bottom: "conv3"
  top: "conv3"
}
layer {
  name: "conv4"
  type: "Convolution"
  bottom: "conv3"
  top: "conv4"
  param {
    lr_mult: 0.1
    decay_mult: 1
  }
  param {
    lr_mult: 0.2
    decay_mult: 0
  }
  convolution_param {
    num_output: 384
    pad: 1
    kernel_size: 3
    group: 2
    weight_filler {
      type: "gaussian"
      std: 0.01
    }
    bias_filler {
      type: "constant"
      value: 1
    }
  }
}
layer {
  name: "relu4"
  type: "ReLU"
  bottom: "conv4"
  top: "conv4"
}
layer {
  name: "conv5"
  type: "Convolution"
  bottom: "conv4"
  top: "conv5"
  param {
    lr_mult: 0.1
    decay_mult: 1
  }
  param {
    lr_mult: 0.2
    decay_mult: 0
  }
  convolution_param {
    num_output: 256
    pad: 1
    kernel_size: 3
    group: 2
    weight_filler {
      type: "gaussian"
      std: 0.01
    }
    bias_filler {
      type: "constant"
      value: 1
    }
  }
}
layer {
  name: "relu5"
  type: "ReLU"
  bottom: "conv5"
  top: "conv5"
}
layer {
  name: "pool5"
  type: "Pooling"
  bottom: "conv5"
  top: "pool5"
  pooling_param {
    pool: MAX
    kernel_size: 3
    stride: 2
  }
}
layer {
  name: "fc6"
  type: "InnerProduct"
  bottom: "pool5"
  top: "fc6"
  param {
    lr_mult: 0.5
    decay_mult: 1
  }
  param {
    lr_mult: 1
    decay_mult: 0
  }
  inner_product_param {
    num_output: 4096
    weight_filler {
      type: "gaussian"
      std: 0.005
    }
    bias_filler {
      type: "constant"
      value: 1
    }
  }
}
layer {
  name: "relu6"
  type: "ReLU"
  bottom: "fc6"
  top: "fc6"
}
layer {
  name: "drop6"
  type: "Dropout"
  bottom: "fc6"
  top: "fc6"
  dropout_param {
    dropout_ratio: 0.5
  }
}
layer {
  name: "fc7"
  type: "InnerProduct"
  bottom: "fc6"
  top: "fc7"
  param {
    lr_mult: 1
    decay_mult: 1
  }
  param {
    lr_mult: 2
    decay_mult: 0
  }
  inner_product_param {
    num_output: 4096
    weight_filler {
      type: "gaussian"
      std: 0.005
    }
    bias_filler {
      type: "constant"
      value: 1
    }
  }
}
layer {
  name: "relu7"
  type: "ReLU"
  bottom: "fc7"
  top: "fc7"
}
layer {
  name: "drop7"
  type: "Dropout"
  bottom: "fc7"
  top: "fc7"
  dropout_param {
    dropout_ratio: 0.5
  }
}
layer {
  name: "fc8_25"
  type: "InnerProduct"
  bottom: "fc7"
  top: "fc8_25"
  param {
    lr_mult: 1
    decay_mult: 1
  }
  param {
    lr_mult: 2
    decay_mult: 0
  }
  inner_product_param {
    num_output: 25
    weight_filler {
      type: "gaussian"
      std: 0.01
    }
    bias_filler {
      type: "constant"
      value: 0
    }
  }
}
layer {
  name: "loss"
  type: "SoftmaxWithLoss"
  bottom: "fc8_25"
  bottom: "label"
  top: "loss"
}
I0309 20:32:42.858597 43592 layer_factory.hpp:77] Creating layer data
I0309 20:32:42.859408 43592 net.cpp:91] Creating Layer data
I0309 20:32:42.859496 43592 net.cpp:399] data -> data
I0309 20:32:42.859592 43592 net.cpp:399] data -> label
I0309 20:32:42.859688 43592 data_transformer.cpp:25] Loading mean file from: data/imagenet25/imagenet25_mean.protobinary
I0309 20:32:42.876510 43595 db_lmdb.cpp:38] Opened lmdb examples/imagenet25/train_lmdb
I0309 20:32:42.922399 43592 data_layer.cpp:41] output data size: 256,3,227,227
I0309 20:32:43.241330 43592 net.cpp:141] Setting up data
I0309 20:32:43.241461 43592 net.cpp:148] Top shape: 256 3 227 227 (39574272)
I0309 20:32:43.241492 43592 net.cpp:148] Top shape: 256 (256)
I0309 20:32:43.241526 43592 net.cpp:156] Memory required for data: 158298112
I0309 20:32:43.241575 43592 layer_factory.hpp:77] Creating layer conv1
I0309 20:32:43.241673 43592 net.cpp:91] Creating Layer conv1
I0309 20:32:43.241719 43592 net.cpp:425] conv1 <- data
I0309 20:32:43.241773 43592 net.cpp:399] conv1 -> conv1
I0309 20:32:43.260597 43592 net.cpp:141] Setting up conv1
I0309 20:32:43.260637 43592 net.cpp:148] Top shape: 256 96 55 55 (74342400)
I0309 20:32:43.260666 43592 net.cpp:156] Memory required for data: 455667712
I0309 20:32:43.260704 43592 layer_factory.hpp:77] Creating layer relu1
I0309 20:32:43.260757 43592 net.cpp:91] Creating Layer relu1
I0309 20:32:43.260800 43592 net.cpp:425] relu1 <- conv1
I0309 20:32:43.260834 43592 net.cpp:386] relu1 -> conv1 (in-place)
I0309 20:32:43.260872 43592 net.cpp:141] Setting up relu1
I0309 20:32:43.260905 43592 net.cpp:148] Top shape: 256 96 55 55 (74342400)
I0309 20:32:43.260931 43592 net.cpp:156] Memory required for data: 753037312
I0309 20:32:43.260959 43592 layer_factory.hpp:77] Creating layer pool1
I0309 20:32:43.260992 43592 net.cpp:91] Creating Layer pool1
I0309 20:32:43.261020 43592 net.cpp:425] pool1 <- conv1
I0309 20:32:43.261064 43592 net.cpp:399] pool1 -> pool1
I0309 20:32:43.261194 43592 net.cpp:141] Setting up pool1
I0309 20:32:43.261231 43592 net.cpp:148] Top shape: 256 96 27 27 (17915904)
I0309 20:32:43.261257 43592 net.cpp:156] Memory required for data: 824700928
I0309 20:32:43.261284 43592 layer_factory.hpp:77] Creating layer norm1
I0309 20:32:43.261320 43592 net.cpp:91] Creating Layer norm1
I0309 20:32:43.261370 43592 net.cpp:425] norm1 <- pool1
I0309 20:32:43.261432 43592 net.cpp:399] norm1 -> norm1
I0309 20:32:43.261535 43592 net.cpp:141] Setting up norm1
I0309 20:32:43.261571 43592 net.cpp:148] Top shape: 256 96 27 27 (17915904)
I0309 20:32:43.261600 43592 net.cpp:156] Memory required for data: 896364544
I0309 20:32:43.261626 43592 layer_factory.hpp:77] Creating layer conv2
I0309 20:32:43.261661 43592 net.cpp:91] Creating Layer conv2
I0309 20:32:43.261688 43592 net.cpp:425] conv2 <- norm1
I0309 20:32:43.261721 43592 net.cpp:399] conv2 -> conv2
I0309 20:32:43.274209 43592 net.cpp:141] Setting up conv2
I0309 20:32:43.274252 43592 net.cpp:148] Top shape: 256 256 27 27 (47775744)
I0309 20:32:43.274281 43592 net.cpp:156] Memory required for data: 1087467520
I0309 20:32:43.274313 43592 layer_factory.hpp:77] Creating layer relu2
I0309 20:32:43.274343 43592 net.cpp:91] Creating Layer relu2
I0309 20:32:43.274370 43592 net.cpp:425] relu2 <- conv2
I0309 20:32:43.274401 43592 net.cpp:386] relu2 -> conv2 (in-place)
I0309 20:32:43.274435 43592 net.cpp:141] Setting up relu2
I0309 20:32:43.274466 43592 net.cpp:148] Top shape: 256 256 27 27 (47775744)
I0309 20:32:43.274492 43592 net.cpp:156] Memory required for data: 1278570496
I0309 20:32:43.274519 43592 layer_factory.hpp:77] Creating layer pool2
I0309 20:32:43.274549 43592 net.cpp:91] Creating Layer pool2
I0309 20:32:43.274576 43592 net.cpp:425] pool2 <- conv2
I0309 20:32:43.274605 43592 net.cpp:399] pool2 -> pool2
I0309 20:32:43.274664 43592 net.cpp:141] Setting up pool2
I0309 20:32:43.274699 43592 net.cpp:148] Top shape: 256 256 13 13 (11075584)
I0309 20:32:43.274727 43592 net.cpp:156] Memory required for data: 1322872832
I0309 20:32:43.274756 43592 layer_factory.hpp:77] Creating layer norm2
I0309 20:32:43.274790 43592 net.cpp:91] Creating Layer norm2
I0309 20:32:43.274818 43592 net.cpp:425] norm2 <- pool2
I0309 20:32:43.274847 43592 net.cpp:399] norm2 -> norm2
I0309 20:32:43.274904 43592 net.cpp:141] Setting up norm2
I0309 20:32:43.274940 43592 net.cpp:148] Top shape: 256 256 13 13 (11075584)
I0309 20:32:43.274967 43592 net.cpp:156] Memory required for data: 1367175168
I0309 20:32:43.274992 43592 layer_factory.hpp:77] Creating layer conv3
I0309 20:32:43.275029 43592 net.cpp:91] Creating Layer conv3
I0309 20:32:43.275054 43592 net.cpp:425] conv3 <- norm2
I0309 20:32:43.275082 43592 net.cpp:399] conv3 -> conv3
I0309 20:32:43.309644 43592 net.cpp:141] Setting up conv3
I0309 20:32:43.309691 43592 net.cpp:148] Top shape: 256 384 13 13 (16613376)
I0309 20:32:43.309720 43592 net.cpp:156] Memory required for data: 1433628672
I0309 20:32:43.309767 43592 layer_factory.hpp:77] Creating layer relu3
I0309 20:32:43.309799 43592 net.cpp:91] Creating Layer relu3
I0309 20:32:43.309826 43592 net.cpp:425] relu3 <- conv3
I0309 20:32:43.309855 43592 net.cpp:386] relu3 -> conv3 (in-place)
I0309 20:32:43.309885 43592 net.cpp:141] Setting up relu3
I0309 20:32:43.309911 43592 net.cpp:148] Top shape: 256 384 13 13 (16613376)
I0309 20:32:43.309933 43592 net.cpp:156] Memory required for data: 1500082176
I0309 20:32:43.309962 43592 layer_factory.hpp:77] Creating layer conv4
I0309 20:32:43.309999 43592 net.cpp:91] Creating Layer conv4
I0309 20:32:43.310029 43592 net.cpp:425] conv4 <- conv3
I0309 20:32:43.310071 43592 net.cpp:399] conv4 -> conv4
I0309 20:32:43.335480 43592 net.cpp:141] Setting up conv4
I0309 20:32:43.335528 43592 net.cpp:148] Top shape: 256 384 13 13 (16613376)
I0309 20:32:43.335556 43592 net.cpp:156] Memory required for data: 1566535680
I0309 20:32:43.335582 43592 layer_factory.hpp:77] Creating layer relu4
I0309 20:32:43.335608 43592 net.cpp:91] Creating Layer relu4
I0309 20:32:43.335633 43592 net.cpp:425] relu4 <- conv4
I0309 20:32:43.335659 43592 net.cpp:386] relu4 -> conv4 (in-place)
I0309 20:32:43.335690 43592 net.cpp:141] Setting up relu4
I0309 20:32:43.335719 43592 net.cpp:148] Top shape: 256 384 13 13 (16613376)
I0309 20:32:43.335748 43592 net.cpp:156] Memory required for data: 1632989184
I0309 20:32:43.335777 43592 layer_factory.hpp:77] Creating layer conv5
I0309 20:32:43.335824 43592 net.cpp:91] Creating Layer conv5
I0309 20:32:43.335870 43592 net.cpp:425] conv5 <- conv4
I0309 20:32:43.335904 43592 net.cpp:399] conv5 -> conv5
I0309 20:32:43.353001 43592 net.cpp:141] Setting up conv5
I0309 20:32:43.353051 43592 net.cpp:148] Top shape: 256 256 13 13 (11075584)
I0309 20:32:43.353081 43592 net.cpp:156] Memory required for data: 1677291520
I0309 20:32:43.353116 43592 layer_factory.hpp:77] Creating layer relu5
I0309 20:32:43.353147 43592 net.cpp:91] Creating Layer relu5
I0309 20:32:43.353173 43592 net.cpp:425] relu5 <- conv5
I0309 20:32:43.353207 43592 net.cpp:386] relu5 -> conv5 (in-place)
I0309 20:32:43.353241 43592 net.cpp:141] Setting up relu5
I0309 20:32:43.353267 43592 net.cpp:148] Top shape: 256 256 13 13 (11075584)
I0309 20:32:43.353288 43592 net.cpp:156] Memory required for data: 1721593856
I0309 20:32:43.353310 43592 layer_factory.hpp:77] Creating layer pool5
I0309 20:32:43.353337 43592 net.cpp:91] Creating Layer pool5
I0309 20:32:43.353363 43592 net.cpp:425] pool5 <- conv5
I0309 20:32:43.353391 43592 net.cpp:399] pool5 -> pool5
I0309 20:32:43.353452 43592 net.cpp:141] Setting up pool5
I0309 20:32:43.353489 43592 net.cpp:148] Top shape: 256 256 6 6 (2359296)
I0309 20:32:43.353518 43592 net.cpp:156] Memory required for data: 1731031040
I0309 20:32:43.353543 43592 layer_factory.hpp:77] Creating layer fc6
I0309 20:32:43.353626 43592 net.cpp:91] Creating Layer fc6
I0309 20:32:43.353655 43592 net.cpp:425] fc6 <- pool5
I0309 20:32:43.353688 43592 net.cpp:399] fc6 -> fc6
I0309 20:32:43.538414 43597 blocking_queue.cpp:50] Waiting for data
I0309 20:32:44.804651 43592 net.cpp:141] Setting up fc6
I0309 20:32:44.804770 43592 net.cpp:148] Top shape: 256 4096 (1048576)
I0309 20:32:44.804800 43592 net.cpp:156] Memory required for data: 1735225344
I0309 20:32:44.804836 43592 layer_factory.hpp:77] Creating layer relu6
I0309 20:32:44.804870 43592 net.cpp:91] Creating Layer relu6
I0309 20:32:44.804899 43592 net.cpp:425] relu6 <- fc6
I0309 20:32:44.804934 43592 net.cpp:386] relu6 -> fc6 (in-place)
I0309 20:32:44.804975 43592 net.cpp:141] Setting up relu6
I0309 20:32:44.805006 43592 net.cpp:148] Top shape: 256 4096 (1048576)
I0309 20:32:44.805032 43592 net.cpp:156] Memory required for data: 1739419648
I0309 20:32:44.805058 43592 layer_factory.hpp:77] Creating layer drop6
I0309 20:32:44.805088 43592 net.cpp:91] Creating Layer drop6
I0309 20:32:44.805114 43592 net.cpp:425] drop6 <- fc6
I0309 20:32:44.805142 43592 net.cpp:386] drop6 -> fc6 (in-place)
I0309 20:32:44.805196 43592 net.cpp:141] Setting up drop6
I0309 20:32:44.805230 43592 net.cpp:148] Top shape: 256 4096 (1048576)
I0309 20:32:44.805258 43592 net.cpp:156] Memory required for data: 1743613952
I0309 20:32:44.805284 43592 layer_factory.hpp:77] Creating layer fc7
I0309 20:32:44.805320 43592 net.cpp:91] Creating Layer fc7
I0309 20:32:44.805348 43592 net.cpp:425] fc7 <- fc6
I0309 20:32:44.805380 43592 net.cpp:399] fc7 -> fc7
I0309 20:32:45.428891 43592 net.cpp:141] Setting up fc7
I0309 20:32:45.429018 43592 net.cpp:148] Top shape: 256 4096 (1048576)
I0309 20:32:45.429044 43592 net.cpp:156] Memory required for data: 1747808256
I0309 20:32:45.429076 43592 layer_factory.hpp:77] Creating layer relu7
I0309 20:32:45.429114 43592 net.cpp:91] Creating Layer relu7
I0309 20:32:45.429139 43592 net.cpp:425] relu7 <- fc7
I0309 20:32:45.429167 43592 net.cpp:386] relu7 -> fc7 (in-place)
I0309 20:32:45.429204 43592 net.cpp:141] Setting up relu7
I0309 20:32:45.429229 43592 net.cpp:148] Top shape: 256 4096 (1048576)
I0309 20:32:45.429250 43592 net.cpp:156] Memory required for data: 1752002560
I0309 20:32:45.429271 43592 layer_factory.hpp:77] Creating layer drop7
I0309 20:32:45.429301 43592 net.cpp:91] Creating Layer drop7
I0309 20:32:45.429325 43592 net.cpp:425] drop7 <- fc7
I0309 20:32:45.429349 43592 net.cpp:386] drop7 -> fc7 (in-place)
I0309 20:32:45.429389 43592 net.cpp:141] Setting up drop7
I0309 20:32:45.429419 43592 net.cpp:148] Top shape: 256 4096 (1048576)
I0309 20:32:45.429441 43592 net.cpp:156] Memory required for data: 1756196864
I0309 20:32:45.429488 43592 layer_factory.hpp:77] Creating layer fc8_25
I0309 20:32:45.429558 43592 net.cpp:91] Creating Layer fc8_25
I0309 20:32:45.429581 43592 net.cpp:425] fc8_25 <- fc7
I0309 20:32:45.429607 43592 net.cpp:399] fc8_25 -> fc8_25
I0309 20:32:45.433851 43592 net.cpp:141] Setting up fc8_25
I0309 20:32:45.433890 43592 net.cpp:148] Top shape: 256 25 (6400)
I0309 20:32:45.433913 43592 net.cpp:156] Memory required for data: 1756222464
I0309 20:32:45.433939 43592 layer_factory.hpp:77] Creating layer loss
I0309 20:32:45.433966 43592 net.cpp:91] Creating Layer loss
I0309 20:32:45.433990 43592 net.cpp:425] loss <- fc8_25
I0309 20:32:45.434012 43592 net.cpp:425] loss <- label
I0309 20:32:45.434043 43592 net.cpp:399] loss -> loss
I0309 20:32:45.434125 43592 layer_factory.hpp:77] Creating layer loss
…
I0309 20:32:45.436955 43592 net.cpp:313] The NetState phase (1) differed from the phase (0) specified by a rule in layer data
I0309 20:32:45.437209 43592 net.cpp:49] Initializing net from parameters: 
name: "CaffeNet"
state {
  phase: TEST
}
layer {
  name: "data"
  type: "Data"
  top: "data"
  top: "label"
  include {
    phase: TEST
  }
  transform_param {
    mirror: false
    crop_size: 227
    mean_file: "data/imagenet25/imagenet25_mean.protobinary"
  }
  data_param {
    source: "examples/imagenet25/val_lmdb"
    batch_size: 50
    backend: LMDB
  }
}
layer {
  name: "conv1"
  type: "Convolution"
  bottom: "data"
  top: "conv1"
  param {
    lr_mult: 0.1
    decay_mult: 1
  }
  param {
    lr_mult: 0.2
    decay_mult: 0
  }
  convolution_param {
    num_output: 96
    kernel_size: 11
    stride: 4
    weight_filler {
      type: "gaussian"
      std: 0.01
    }
    bias_filler {
      type: "constant"
      value: 0
    }
  }
}
layer {
  name: "relu1"
  type: "ReLU"
  bottom: "conv1"
  top: "conv1"
}
layer {
  name: "pool1"
  type: "Pooling"
  bottom: "conv1"
  top: "pool1"
  pooling_param {
    pool: MAX
    kernel_size: 3
    stride: 2
  }
}
layer {
  name: "norm1"
  type: "LRN"
  bottom: "pool1"
  top: "norm1"
  lrn_param {
    local_size: 5
    alpha: 0.0001
    beta: 0.75
  }
}
layer {
  name: "conv2"
  type: "Convolution"
  bottom: "norm1"
  top: "conv2"
  param {
    lr_mult: 0.1
    decay_mult: 1
  }
  param {
    lr_mult: 0.2
    decay_mult: 0
  }
  convolution_param {
    num_output: 256
    pad: 2
    kernel_size: 5
    group: 2
    weight_filler {
      type: "gaussian"
      std: 0.01
    }
    bias_filler {
      type: "constant"
      value: 1
    }
  }
}
layer {
  name: "relu2"
  type: "ReLU"
  bottom: "conv2"
  top: "conv2"
}
layer {
  name: "pool2"
  type: "Pooling"
  bottom: "conv2"
  top: "pool2"
  pooling_param {
    pool: MAX
    kernel_size: 3
    stride: 2
  }
}
layer {
  name: "norm2"
  type: "LRN"
  bottom: "pool2"
  top: "norm2"
  lrn_param {
    local_size: 5
    alpha: 0.0001
    beta: 0.75
  }
}
layer {
  name: "conv3"
  type: "Convolution"
  bottom: "norm2"
  top: "conv3"
  param {
    lr_mult: 0.1
    decay_mult: 1
  }
  param {
    lr_mult: 0.2
    decay_mult: 0
  }
  convolution_param {
    num_output: 384
    pad: 1
    kernel_size: 3
    weight_filler {
      type: "gaussian"
      std: 0.01
    }
    bias_filler {
      type: "constant"
      value: 0
    }
  }
}
layer {
  name: "relu3"
  type: "ReLU"
  bottom: "conv3"
  top: "conv3"
}
layer {
  name: "conv4"
  type: "Convolution"
  bottom: "conv3"
  top: "conv4"
  param {
    lr_mult: 0.1
    decay_mult: 1
  }
  param {
    lr_mult: 0.2
    decay_mult: 0
  }
  convolution_param {
    num_output: 384
    pad: 1
    kernel_size: 3
    group: 2
    weight_filler {
      type: "gaussian"
      std: 0.01
    }
    bias_filler {
      type: "constant"
      value: 1
    }
  }
}
layer {
  name: "relu4"
  type: "ReLU"
  bottom: "conv4"
  top: "conv4"
}
layer {
  name: "conv5"
  type: "Convolution"
  bottom: "conv4"
  top: "conv5"
  param {
    lr_mult: 0.1
    decay_mult: 1
  }
  param {
    lr_mult: 0.2
    decay_mult: 0
  }
  convolution_param {
    num_output: 256
    pad: 1
    kernel_size: 3
    group: 2
    weight_filler {
      type: "gaussian"
      std: 0.01
    }
    bias_filler {
      type: "constant"
      value: 1
    }
  }
}
layer {
  name: "relu5"
  type: "ReLU"
  bottom: "conv5"
  top: "conv5"
}
layer {
  name: "pool5"
  type: "Pooling"
  bottom: "conv5"
  top: "pool5"
  pooling_param {
    pool: MAX
    kernel_size: 3
    stride: 2
  }
}
layer {
  name: "fc6"
  type: "InnerProduct"
  bottom: "pool5"
  top: "fc6"
  param {
    lr_mult: 0.5
    decay_mult: 1
  }
  param {
    lr_mult: 1
    decay_mult: 0
  }
  inner_product_param {
    num_output: 4096
    weight_filler {
      type: "gaussian"
      std: 0.005
    }
    bias_filler {
      type: "constant"
      value: 1
    }
  }
}
layer {
  name: "relu6"
  type: "ReLU"
  bottom: "fc6"
  top: "fc6"
}
layer {
  name: "drop6"
  type: "Dropout"
  bottom: "fc6"
  top: "fc6"
  dropout_param {
    dropout_ratio: 0.5
  }
}
layer {
  name: "fc7"
  type: "InnerProduct"
  bottom: "fc6"
  top: "fc7"
  param {
    lr_mult: 1
    decay_mult: 1
  }
  param {
    lr_mult: 2
    decay_mult: 0
  }
  inner_product_param {
    num_output: 4096
    weight_filler {
      type: "gaussian"
      std: 0.005
    }
    bias_filler {
      type: "constant"
      value: 1
    }
  }
}
layer {
  name: "relu7"
  type: "ReLU"
  bottom: "fc7"
  top: "fc7"
}
layer {
  name: "drop7"
  type: "Dropout"
  bottom: "fc7"
  top: "fc7"
  dropout_param {
    dropout_ratio: 0.5
  }
}
layer {
  name: "fc8_25"
  type: "InnerProduct"
  bottom: "fc7"
  top: "fc8_25"
  param {
    lr_mult: 1
    decay_mult: 1
  }
  param {
    lr_mult: 2
    decay_mult: 0
  }
  inner_product_param {
    num_output: 25
    weight_filler {
      type: "gaussian"
      std: 0.01
    }
    bias_filler {
      type: "constant"
      value: 0
    }
  }
}
layer {
  name: "accuracy"
  type: "Accuracy"
  bottom: "fc8_25"
  bottom: "label"
  top: "accuracy"
  include {
    phase: TEST
  }
}
layer {
  name: "loss"
  type: "SoftmaxWithLoss"
  bottom: "fc8_25"
  bottom: "label"
  top: "loss"
}
I0309 20:32:45.437402 43592 layer_factory.hpp:77] Creating layer data
I0309 20:32:45.437582 43592 net.cpp:91] Creating Layer data
I0309 20:32:45.437615 43592 net.cpp:399] data -> data
I0309 20:32:45.437651 43592 net.cpp:399] data -> label
I0309 20:32:45.437685 43592 data_transformer.cpp:25] Loading mean file from: data/imagenet25/imagenet25_mean.protobinary
I0309 20:32:45.453052 43599 db_lmdb.cpp:38] Opened lmdb examples/imagenet25/val_lmdb
I0309 20:32:45.454780 43592 data_layer.cpp:41] output data size: 50,3,227,227
I0309 20:32:45.514158 43592 net.cpp:141] Setting up data
I0309 20:32:45.514279 43592 net.cpp:148] Top shape: 50 3 227 227 (7729350)
I0309 20:32:45.514307 43592 net.cpp:148] Top shape: 50 (50)
I0309 20:32:45.514343 43592 net.cpp:156] Memory required for data: 30917600
I0309 20:32:45.514379 43592 layer_factory.hpp:77] Creating layer label_data_1_split
I0309 20:32:45.514417 43592 net.cpp:91] Creating Layer label_data_1_split
I0309 20:32:45.514442 43592 net.cpp:425] label_data_1_split <- label
I0309 20:32:45.514470 43592 net.cpp:399] label_data_1_split -> label_data_1_split_0
I0309 20:32:45.514505 43592 net.cpp:399] label_data_1_split -> label_data_1_split_1
I0309 20:32:45.514583 43592 net.cpp:141] Setting up label_data_1_split
I0309 20:32:45.514616 43592 net.cpp:148] Top shape: 50 (50)
I0309 20:32:45.514653 43592 net.cpp:148] Top shape: 50 (50)
I0309 20:32:45.514684 43592 net.cpp:156] Memory required for data: 30918000
I0309 20:32:45.514708 43592 layer_factory.hpp:77] Creating layer conv1
I0309 20:32:45.514750 43592 net.cpp:91] Creating Layer conv1
I0309 20:32:45.514776 43592 net.cpp:425] conv1 <- data
I0309 20:32:45.514804 43592 net.cpp:399] conv1 -> conv1
I0309 20:32:45.518420 43592 net.cpp:141] Setting up conv1
I0309 20:32:45.518463 43592 net.cpp:148] Top shape: 50 96 55 55 (14520000)
I0309 20:32:45.518492 43592 net.cpp:156] Memory required for data: 88998000
I0309 20:32:45.518528 43592 layer_factory.hpp:77] Creating layer relu1
I0309 20:32:45.518556 43592 net.cpp:91] Creating Layer relu1
I0309 20:32:45.518579 43592 net.cpp:425] relu1 <- conv1
I0309 20:32:45.518604 43592 net.cpp:386] relu1 -> conv1 (in-place)
I0309 20:32:45.518635 43592 net.cpp:141] Setting up relu1
I0309 20:32:45.518664 43592 net.cpp:148] Top shape: 50 96 55 55 (14520000)
I0309 20:32:45.518690 43592 net.cpp:156] Memory required for data: 147078000
I0309 20:32:45.518717 43592 layer_factory.hpp:77] Creating layer pool1
I0309 20:32:45.518753 43592 net.cpp:91] Creating Layer pool1
I0309 20:32:45.518784 43592 net.cpp:425] pool1 <- conv1
I0309 20:32:45.518815 43592 net.cpp:399] pool1 -> pool1
I0309 20:32:45.518877 43592 net.cpp:141] Setting up pool1
I0309 20:32:45.518911 43592 net.cpp:148] Top shape: 50 96 27 27 (3499200)
I0309 20:32:45.518936 43592 net.cpp:156] Memory required for data: 161074800
I0309 20:32:45.518960 43592 layer_factory.hpp:77] Creating layer norm1
I0309 20:32:45.518991 43592 net.cpp:91] Creating Layer norm1
I0309 20:32:45.519017 43592 net.cpp:425] norm1 <- pool1
I0309 20:32:45.519044 43592 net.cpp:399] norm1 -> norm1
I0309 20:32:45.519100 43592 net.cpp:141] Setting up norm1
I0309 20:32:45.519132 43592 net.cpp:148] Top shape: 50 96 27 27 (3499200)
I0309 20:32:45.519156 43592 net.cpp:156] Memory required for data: 175071600
I0309 20:32:45.519181 43592 layer_factory.hpp:77] Creating layer conv2
I0309 20:32:45.519212 43592 net.cpp:91] Creating Layer conv2
I0309 20:32:45.519237 43592 net.cpp:425] conv2 <- norm1
I0309 20:32:45.519274 43592 net.cpp:399] conv2 -> conv2
I0309 20:32:45.531153 43592 net.cpp:141] Setting up conv2
I0309 20:32:45.531210 43592 net.cpp:148] Top shape: 50 256 27 27 (9331200)
I0309 20:32:45.531249 43592 net.cpp:156] Memory required for data: 212396400
I0309 20:32:45.531277 43592 layer_factory.hpp:77] Creating layer relu2
I0309 20:32:45.531317 43592 net.cpp:91] Creating Layer relu2
I0309 20:32:45.531374 43592 net.cpp:425] relu2 <- conv2
I0309 20:32:45.531450 43592 net.cpp:386] relu2 -> conv2 (in-place)
I0309 20:32:45.531482 43592 net.cpp:141] Setting up relu2
I0309 20:32:45.531522 43592 net.cpp:148] Top shape: 50 256 27 27 (9331200)
I0309 20:32:45.531545 43592 net.cpp:156] Memory required for data: 249721200
I0309 20:32:45.531568 43592 layer_factory.hpp:77] Creating layer pool2
I0309 20:32:45.531595 43592 net.cpp:91] Creating Layer pool2
I0309 20:32:45.531620 43592 net.cpp:425] pool2 <- conv2
I0309 20:32:45.531649 43592 net.cpp:399] pool2 -> pool2
I0309 20:32:45.531725 43592 net.cpp:141] Setting up pool2
I0309 20:32:45.531776 43592 net.cpp:148] Top shape: 50 256 13 13 (2163200)
I0309 20:32:45.531802 43592 net.cpp:156] Memory required for data: 258374000
I0309 20:32:45.531826 43592 layer_factory.hpp:77] Creating layer norm2
I0309 20:32:45.531857 43592 net.cpp:91] Creating Layer norm2
I0309 20:32:45.531884 43592 net.cpp:425] norm2 <- pool2
I0309 20:32:45.531914 43592 net.cpp:399] norm2 -> norm2
I0309 20:32:45.531997 43592 net.cpp:141] Setting up norm2
I0309 20:32:45.532047 43592 net.cpp:148] Top shape: 50 256 13 13 (2163200)
I0309 20:32:45.532075 43592 net.cpp:156] Memory required for data: 267026800
I0309 20:32:45.532127 43592 layer_factory.hpp:77] Creating layer conv3
I0309 20:32:45.532166 43592 net.cpp:91] Creating Layer conv3
I0309 20:32:45.532197 43592 net.cpp:425] conv3 <- norm2
I0309 20:32:45.532230 43592 net.cpp:399] conv3 -> conv3
I0309 20:32:45.566068 43592 net.cpp:141] Setting up conv3
I0309 20:32:45.566112 43592 net.cpp:148] Top shape: 50 384 13 13 (3244800)
I0309 20:32:45.566149 43592 net.cpp:156] Memory required for data: 280006000
I0309 20:32:45.566190 43592 layer_factory.hpp:77] Creating layer relu3
I0309 20:32:45.566236 43592 net.cpp:91] Creating Layer relu3
I0309 20:32:45.566267 43592 net.cpp:425] relu3 <- conv3
I0309 20:32:45.566298 43592 net.cpp:386] relu3 -> conv3 (in-place)
I0309 20:32:45.566329 43592 net.cpp:141] Setting up relu3
I0309 20:32:45.566359 43592 net.cpp:148] Top shape: 50 384 13 13 (3244800)
I0309 20:32:45.566386 43592 net.cpp:156] Memory required for data: 292985200
I0309 20:32:45.566414 43592 layer_factory.hpp:77] Creating layer conv4
I0309 20:32:45.566462 43592 net.cpp:91] Creating Layer conv4
I0309 20:32:45.566498 43592 net.cpp:425] conv4 <- conv3
I0309 20:32:45.566531 43592 net.cpp:399] conv4 -> conv4
I0309 20:32:45.591872 43592 net.cpp:141] Setting up conv4
I0309 20:32:45.591917 43592 net.cpp:148] Top shape: 50 384 13 13 (3244800)
I0309 20:32:45.591945 43592 net.cpp:156] Memory required for data: 305964400
I0309 20:32:45.591974 43592 layer_factory.hpp:77] Creating layer relu4
I0309 20:32:45.592006 43592 net.cpp:91] Creating Layer relu4
I0309 20:32:45.592034 43592 net.cpp:425] relu4 <- conv4
I0309 20:32:45.592063 43592 net.cpp:386] relu4 -> conv4 (in-place)
I0309 20:32:45.592097 43592 net.cpp:141] Setting up relu4
I0309 20:32:45.592128 43592 net.cpp:148] Top shape: 50 384 13 13 (3244800)
I0309 20:32:45.592154 43592 net.cpp:156] Memory required for data: 318943600
I0309 20:32:45.592178 43592 layer_factory.hpp:77] Creating layer conv5
I0309 20:32:45.592212 43592 net.cpp:91] Creating Layer conv5
I0309 20:32:45.592245 43592 net.cpp:425] conv5 <- conv4
I0309 20:32:45.592277 43592 net.cpp:399] conv5 -> conv5
I0309 20:32:45.609730 43592 net.cpp:141] Setting up conv5
I0309 20:32:45.609783 43592 net.cpp:148] Top shape: 50 256 13 13 (2163200)
I0309 20:32:45.609812 43592 net.cpp:156] Memory required for data: 327596400
I0309 20:32:45.609845 43592 layer_factory.hpp:77] Creating layer relu5
I0309 20:32:45.609875 43592 net.cpp:91] Creating Layer relu5
I0309 20:32:45.609905 43592 net.cpp:425] relu5 <- conv5
I0309 20:32:45.609935 43592 net.cpp:386] relu5 -> conv5 (in-place)
I0309 20:32:45.609966 43592 net.cpp:141] Setting up relu5
I0309 20:32:45.609998 43592 net.cpp:148] Top shape: 50 256 13 13 (2163200)
I0309 20:32:45.610024 43592 net.cpp:156] Memory required for data: 336249200
I0309 20:32:45.610049 43592 layer_factory.hpp:77] Creating layer pool5
I0309 20:32:45.610081 43592 net.cpp:91] Creating Layer pool5
I0309 20:32:45.610121 43592 net.cpp:425] pool5 <- conv5
I0309 20:32:45.610163 43592 net.cpp:399] pool5 -> pool5
I0309 20:32:45.610221 43592 net.cpp:141] Setting up pool5
I0309 20:32:45.610258 43592 net.cpp:148] Top shape: 50 256 6 6 (460800)
I0309 20:32:45.610285 43592 net.cpp:156] Memory required for data: 338092400
I0309 20:32:45.610312 43592 layer_factory.hpp:77] Creating layer fc6
I0309 20:32:45.610345 43592 net.cpp:91] Creating Layer fc6
I0309 20:32:45.610374 43592 net.cpp:425] fc6 <- pool5
I0309 20:32:45.610402 43592 net.cpp:399] fc6 -> fc6
I0309 20:32:47.001688 43592 net.cpp:141] Setting up fc6
I0309 20:32:47.001826 43592 net.cpp:148] Top shape: 50 4096 (204800)
I0309 20:32:47.001850 43592 net.cpp:156] Memory required for data: 338911600
I0309 20:32:47.001883 43592 layer_factory.hpp:77] Creating layer relu6
I0309 20:32:47.001920 43592 net.cpp:91] Creating Layer relu6
I0309 20:32:47.001945 43592 net.cpp:425] relu6 <- fc6
I0309 20:32:47.001974 43592 net.cpp:386] relu6 -> fc6 (in-place)
I0309 20:32:47.002012 43592 net.cpp:141] Setting up relu6
I0309 20:32:47.002037 43592 net.cpp:148] Top shape: 50 4096 (204800)
I0309 20:32:47.002058 43592 net.cpp:156] Memory required for data: 339730800
I0309 20:32:47.002079 43592 layer_factory.hpp:77] Creating layer drop6
I0309 20:32:47.002113 43592 net.cpp:91] Creating Layer drop6
I0309 20:32:47.002137 43592 net.cpp:425] drop6 <- fc6
I0309 20:32:47.002162 43592 net.cpp:386] drop6 -> fc6 (in-place)
I0309 20:32:47.002213 43592 net.cpp:141] Setting up drop6
I0309 20:32:47.002243 43592 net.cpp:148] Top shape: 50 4096 (204800)
I0309 20:32:47.002265 43592 net.cpp:156] Memory required for data: 340550000
I0309 20:32:47.002287 43592 layer_factory.hpp:77] Creating layer fc7
I0309 20:32:47.002317 43592 net.cpp:91] Creating Layer fc7
I0309 20:32:47.002341 43592 net.cpp:425] fc7 <- fc6
I0309 20:32:47.002367 43592 net.cpp:399] fc7 -> fc7
I0309 20:32:47.616619 43592 net.cpp:141] Setting up fc7
I0309 20:32:47.616752 43592 net.cpp:148] Top shape: 50 4096 (204800)
I0309 20:32:47.616777 43592 net.cpp:156] Memory required for data: 341369200
I0309 20:32:47.616811 43592 layer_factory.hpp:77] Creating layer relu7
I0309 20:32:47.616848 43592 net.cpp:91] Creating Layer relu7
I0309 20:32:47.616873 43592 net.cpp:425] relu7 <- fc7
I0309 20:32:47.616904 43592 net.cpp:386] relu7 -> fc7 (in-place)
I0309 20:32:47.616941 43592 net.cpp:141] Setting up relu7
I0309 20:32:47.616967 43592 net.cpp:148] Top shape: 50 4096 (204800)
I0309 20:32:47.616988 43592 net.cpp:156] Memory required for data: 342188400
I0309 20:32:47.617010 43592 layer_factory.hpp:77] Creating layer drop7
I0309 20:32:47.617036 43592 net.cpp:91] Creating Layer drop7
I0309 20:32:47.617059 43592 net.cpp:425] drop7 <- fc7
I0309 20:32:47.617084 43592 net.cpp:386] drop7 -> fc7 (in-place)
I0309 20:32:47.617133 43592 net.cpp:141] Setting up drop7
I0309 20:32:47.617163 43592 net.cpp:148] Top shape: 50 4096 (204800)
I0309 20:32:47.617185 43592 net.cpp:156] Memory required for data: 343007600
I0309 20:32:47.617207 43592 layer_factory.hpp:77] Creating layer fc8_25
I0309 20:32:47.617246 43592 net.cpp:91] Creating Layer fc8_25
I0309 20:32:47.617270 43592 net.cpp:425] fc8_25 <- fc7
I0309 20:32:47.617295 43592 net.cpp:399] fc8_25 -> fc8_25
I0309 20:32:47.621006 43592 net.cpp:141] Setting up fc8_25
I0309 20:32:47.621042 43592 net.cpp:148] Top shape: 50 25 (1250)
I0309 20:32:47.621063 43592 net.cpp:156] Memory required for data: 343012600
I0309 20:32:47.621088 43592 layer_factory.hpp:77] Creating layer fc8_25_fc8_25_0_split
I0309 20:32:47.621115 43592 net.cpp:91] Creating Layer fc8_25_fc8_25_0_split
I0309 20:32:47.621137 43592 net.cpp:425] fc8_25_fc8_25_0_split <- fc8_25
I0309 20:32:47.621165 43592 net.cpp:399] fc8_25_fc8_25_0_split -> fc8_25_fc8_25_0_split_0
I0309 20:32:47.621193 43592 net.cpp:399] fc8_25_fc8_25_0_split -> fc8_25_fc8_25_0_split_1
I0309 20:32:47.621249 43592 net.cpp:141] Setting up fc8_25_fc8_25_0_split
I0309 20:32:47.621279 43592 net.cpp:148] Top shape: 50 25 (1250)
I0309 20:32:47.621304 43592 net.cpp:148] Top shape: 50 25 (1250)
I0309 20:32:47.621351 43592 net.cpp:156] Memory required for data: 343022600
I0309 20:32:47.621412 43592 layer_factory.hpp:77] Creating layer accuracy
I0309 20:32:47.621439 43592 net.cpp:91] Creating Layer accuracy
I0309 20:32:47.621462 43592 net.cpp:425] accuracy <- fc8_25_fc8_25_0_split_0
I0309 20:32:47.621485 43592 net.cpp:425] accuracy <- label_data_1_split_0
I0309 20:32:47.621513 43592 net.cpp:399] accuracy -> accuracy
…
