…
I0309 19:22:52.624794 23865 net.cpp:313] The NetState phase (0) differed from the phase (1) specified by a rule in layer accuracy
I0309 19:22:52.625021 23865 net.cpp:49] Initializing net from parameters: 
name: "CaffeNet"
state {
  phase: TRAIN
}
layer {
  name: "data"
  type: "Data"
  top: "data"
  top: "label"
  include {
    phase: TRAIN
  }
  transform_param {
    mirror: true
    crop_size: 227
    mean_file: "data/imagenet25/imagenet25_mean.protobinary"
  }
  data_param {
    source: "examples/imagenet25/train_lmdb"
    batch_size: 256
    backend: LMDB
  }
}
layer {
  name: "conv1"
  type: "Convolution"
  bottom: "data"
  top: "conv1"
  param {
    lr_mult: 0
    decay_mult: 1
  }
  param {
    lr_mult: 0
    decay_mult: 0
  }
  convolution_param {
    num_output: 96
    kernel_size: 11
    stride: 4
    weight_filler {
      type: "gaussian"
      std: 0.01
    }
    bias_filler {
      type: "constant"
      value: 0
    }
  }
}
layer {
  name: "relu1"
  type: "ReLU"
  bottom: "conv1"
  top: "conv1"
}
layer {
  name: "pool1"
  type: "Pooling"
  bottom: "conv1"
  top: "pool1"
  pooling_param {
    pool: MAX
    kernel_size: 3
    stride: 2
  }
}
layer {
  name: "norm1"
  type: "LRN"
  bottom: "pool1"
  top: "norm1"
  lrn_param {
    local_size: 5
    alpha: 0.0001
    beta: 0.75
  }
}
layer {
  name: "conv2"
  type: "Convolution"
  bottom: "norm1"
  top: "conv2"
  param {
    lr_mult: 0
    decay_mult: 1
  }
  param {
    lr_mult: 0
    decay_mult: 0
  }
  convolution_param {
    num_output: 256
    pad: 2
    kernel_size: 5
    group: 2
    weight_filler {
      type: "gaussian"
      std: 0.01
    }
    bias_filler {
      type: "constant"
      value: 1
    }
  }
}
layer {
  name: "relu2"
  type: "ReLU"
  bottom: "conv2"
  top: "conv2"
}
layer {
  name: "pool2"
  type: "Pooling"
  bottom: "conv2"
  top: "pool2"
  pooling_param {
    pool: MAX
    kernel_size: 3
    stride: 2
  }
}
layer {
  name: "norm2"
  type: "LRN"
  bottom: "pool2"
  top: "norm2"
  lrn_param {
    local_size: 5
    alpha: 0.0001
    beta: 0.75
  }
}
layer {
  name: "conv3"
  type: "Convolution"
  bottom: "norm2"
  top: "conv3"
  param {
    lr_mult: 0
    decay_mult: 1
  }
  param {
    lr_mult: 0
    decay_mult: 0
  }
  convolution_param {
    num_output: 384
    pad: 1
    kernel_size: 3
    weight_filler {
      type: "gaussian"
      std: 0.01
    }
    bias_filler {
      type: "constant"
      value: 0
    }
  }
}
layer {
  name: "relu3"
  type: "ReLU"
  bottom: "conv3"
  top: "conv3"
}
layer {
  name: "conv4"
  type: "Convolution"
  bottom: "conv3"
  top: "conv4"
  param {
    lr_mult: 0
    decay_mult: 1
  }
  param {
    lr_mult: 0
    decay_mult: 0
  }
  convolution_param {
    num_output: 384
    pad: 1
    kernel_size: 3
    group: 2
    weight_filler {
      type: "gaussian"
      std: 0.01
    }
    bias_filler {
      type: "constant"
      value: 1
    }
  }
}
layer {
  name: "relu4"
  type: "ReLU"
  bottom: "conv4"
  top: "conv4"
}
layer {
  name: "conv5"
  type: "Convolution"
  bottom: "conv4"
  top: "conv5"
  param {
    lr_mult: 0
    decay_mult: 1
  }
  param {
    lr_mult: 0
    decay_mult: 0
  }
  convolution_param {
    num_output: 256
    pad: 1
    kernel_size: 3
    group: 2
    weight_filler {
      type: "gaussian"
      std: 0.01
    }
    bias_filler {
      type: "constant"
      value: 1
    }
  }
}
layer {
  name: "relu5"
  type: "ReLU"
  bottom: "conv5"
  top: "conv5"
}
layer {
  name: "pool5"
  type: "Pooling"
  bottom: "conv5"
  top: "pool5"
  pooling_param {
    pool: MAX
    kernel_size: 3
    stride: 2
  }
}
layer {
  name: "fc6"
  type: "InnerProduct"
  bottom: "pool5"
  top: "fc6"
  param {
    lr_mult: 0
    decay_mult: 1
  }
  param {
    lr_mult: 0
    decay_mult: 0
  }
  inner_product_param {
    num_output: 4096
    weight_filler {
      type: "gaussian"
      std: 0.005
    }
    bias_filler {
      type: "constant"
      value: 1
    }
  }
}
layer {
  name: "relu6"
  type: "ReLU"
  bottom: "fc6"
  top: "fc6"
}
layer {
  name: "drop6"
  type: "Dropout"
  bottom: "fc6"
  top: "fc6"
  dropout_param {
    dropout_ratio: 0.5
  }
}
layer {
  name: "fc7"
  type: "InnerProduct"
  bottom: "fc6"
  top: "fc7"
  param {
    lr_mult: 1
    decay_mult: 1
  }
  param {
    lr_mult: 2
    decay_mult: 0
  }
  inner_product_param {
    num_output: 4096
    weight_filler {
      type: "gaussian"
      std: 0.005
    }
    bias_filler {
      type: "constant"
      value: 1
    }
  }
}
layer {
  name: "relu7"
  type: "ReLU"
  bottom: "fc7"
  top: "fc7"
}
layer {
  name: "drop7"
  type: "Dropout"
  bottom: "fc7"
  top: "fc7"
  dropout_param {
    dropout_ratio: 0.5
  }
}
layer {
  name: "fc8_25"
  type: "InnerProduct"
  bottom: "fc7"
  top: "fc8_25"
  param {
    lr_mult: 1
    decay_mult: 1
  }
  param {
    lr_mult: 2
    decay_mult: 0
  }
  inner_product_param {
    num_output: 25
    weight_filler {
      type: "gaussian"
      std: 0.01
    }
    bias_filler {
      type: "constant"
      value: 0
    }
  }
}
layer {
  name: "loss"
  type: "SoftmaxWithLoss"
  bottom: "fc8_25"
  bottom: "label"
  top: "loss"
}
I0309 19:22:52.625296 23865 layer_factory.hpp:77] Creating layer data
I0309 19:22:52.626137 23865 net.cpp:91] Creating Layer data
I0309 19:22:52.626201 23865 net.cpp:399] data -> data
I0309 19:22:52.626299 23865 net.cpp:399] data -> label
I0309 19:22:52.626401 23865 data_transformer.cpp:25] Loading mean file from: data/imagenet25/imagenet25_mean.protobinary
I0309 19:22:53.020764 23867 db_lmdb.cpp:38] Opened lmdb examples/imagenet25/train_lmdb
I0309 19:22:53.028473 23865 data_layer.cpp:41] output data size: 256,3,227,227
I0309 19:22:53.344532 23865 net.cpp:141] Setting up data
I0309 19:22:53.344630 23865 net.cpp:148] Top shape: 256 3 227 227 (39574272)
I0309 19:22:53.344663 23865 net.cpp:148] Top shape: 256 (256)
I0309 19:22:53.344688 23865 net.cpp:156] Memory required for data: 158298112
I0309 19:22:53.344727 23865 layer_factory.hpp:77] Creating layer conv1
I0309 19:22:53.344789 23865 net.cpp:91] Creating Layer conv1
I0309 19:22:53.344815 23865 net.cpp:425] conv1 <- data
I0309 19:22:53.344859 23865 net.cpp:399] conv1 -> conv1
I0309 19:22:53.363538 23865 net.cpp:141] Setting up conv1
I0309 19:22:53.363579 23865 net.cpp:148] Top shape: 256 96 55 55 (74342400)
I0309 19:22:53.363613 23865 net.cpp:156] Memory required for data: 455667712
I0309 19:22:53.363652 23865 layer_factory.hpp:77] Creating layer relu1
I0309 19:22:53.363685 23865 net.cpp:91] Creating Layer relu1
I0309 19:22:53.363709 23865 net.cpp:425] relu1 <- conv1
I0309 19:22:53.363734 23865 net.cpp:386] relu1 -> conv1 (in-place)
I0309 19:22:53.363765 23865 net.cpp:141] Setting up relu1
I0309 19:22:53.363795 23865 net.cpp:148] Top shape: 256 96 55 55 (74342400)
I0309 19:22:53.363821 23865 net.cpp:156] Memory required for data: 753037312
I0309 19:22:53.363847 23865 layer_factory.hpp:77] Creating layer pool1
I0309 19:22:53.363875 23865 net.cpp:91] Creating Layer pool1
I0309 19:22:53.363903 23865 net.cpp:425] pool1 <- conv1
I0309 19:22:53.363934 23865 net.cpp:399] pool1 -> pool1
I0309 19:22:53.364047 23865 net.cpp:141] Setting up pool1
I0309 19:22:53.364085 23865 net.cpp:148] Top shape: 256 96 27 27 (17915904)
I0309 19:22:53.364111 23865 net.cpp:156] Memory required for data: 824700928
I0309 19:22:53.364137 23865 layer_factory.hpp:77] Creating layer norm1
I0309 19:22:53.364169 23865 net.cpp:91] Creating Layer norm1
I0309 19:22:53.364218 23865 net.cpp:425] norm1 <- pool1
I0309 19:22:53.364284 23865 net.cpp:399] norm1 -> norm1
I0309 19:22:53.364387 23865 net.cpp:141] Setting up norm1
I0309 19:22:53.364424 23865 net.cpp:148] Top shape: 256 96 27 27 (17915904)
I0309 19:22:53.364450 23865 net.cpp:156] Memory required for data: 896364544
I0309 19:22:53.364476 23865 layer_factory.hpp:77] Creating layer conv2
I0309 19:22:53.364508 23865 net.cpp:91] Creating Layer conv2
I0309 19:22:53.364532 23865 net.cpp:425] conv2 <- norm1
I0309 19:22:53.364557 23865 net.cpp:399] conv2 -> conv2
I0309 19:22:53.377660 23865 net.cpp:141] Setting up conv2
I0309 19:22:53.377744 23865 net.cpp:148] Top shape: 256 256 27 27 (47775744)
I0309 19:22:53.377768 23865 net.cpp:156] Memory required for data: 1087467520
I0309 19:22:53.377796 23865 layer_factory.hpp:77] Creating layer relu2
I0309 19:22:53.377825 23865 net.cpp:91] Creating Layer relu2
I0309 19:22:53.377859 23865 net.cpp:425] relu2 <- conv2
I0309 19:22:53.377884 23865 net.cpp:386] relu2 -> conv2 (in-place)
I0309 19:22:53.377923 23865 net.cpp:141] Setting up relu2
I0309 19:22:53.377949 23865 net.cpp:148] Top shape: 256 256 27 27 (47775744)
I0309 19:22:53.377970 23865 net.cpp:156] Memory required for data: 1278570496
I0309 19:22:53.377992 23865 layer_factory.hpp:77] Creating layer pool2
I0309 19:22:53.378016 23865 net.cpp:91] Creating Layer pool2
I0309 19:22:53.378039 23865 net.cpp:425] pool2 <- conv2
I0309 19:22:53.378067 23865 net.cpp:399] pool2 -> pool2
I0309 19:22:53.378126 23865 net.cpp:141] Setting up pool2
I0309 19:22:53.378171 23865 net.cpp:148] Top shape: 256 256 13 13 (11075584)
I0309 19:22:53.378206 23865 net.cpp:156] Memory required for data: 1322872832
I0309 19:22:53.378229 23865 layer_factory.hpp:77] Creating layer norm2
I0309 19:22:53.378259 23865 net.cpp:91] Creating Layer norm2
I0309 19:22:53.378286 23865 net.cpp:425] norm2 <- pool2
I0309 19:22:53.378314 23865 net.cpp:399] norm2 -> norm2
I0309 19:22:53.378372 23865 net.cpp:141] Setting up norm2
I0309 19:22:53.378423 23865 net.cpp:148] Top shape: 256 256 13 13 (11075584)
I0309 19:22:53.378448 23865 net.cpp:156] Memory required for data: 1367175168
I0309 19:22:53.378469 23865 layer_factory.hpp:77] Creating layer conv3
I0309 19:22:53.378499 23865 net.cpp:91] Creating Layer conv3
I0309 19:22:53.378533 23865 net.cpp:425] conv3 <- norm2
I0309 19:22:53.378561 23865 net.cpp:399] conv3 -> conv3
I0309 19:22:53.413540 23865 net.cpp:141] Setting up conv3
I0309 19:22:53.413678 23865 net.cpp:148] Top shape: 256 384 13 13 (16613376)
I0309 19:22:53.413703 23865 net.cpp:156] Memory required for data: 1433628672
I0309 19:22:53.413741 23865 layer_factory.hpp:77] Creating layer relu3
I0309 19:22:53.413774 23865 net.cpp:91] Creating Layer relu3
I0309 19:22:53.413799 23865 net.cpp:425] relu3 <- conv3
I0309 19:22:53.413830 23865 net.cpp:386] relu3 -> conv3 (in-place)
I0309 19:22:53.413864 23865 net.cpp:141] Setting up relu3
I0309 19:22:53.413892 23865 net.cpp:148] Top shape: 256 384 13 13 (16613376)
I0309 19:22:53.413913 23865 net.cpp:156] Memory required for data: 1500082176
I0309 19:22:53.413947 23865 layer_factory.hpp:77] Creating layer conv4
I0309 19:22:53.413977 23865 net.cpp:91] Creating Layer conv4
I0309 19:22:53.414000 23865 net.cpp:425] conv4 <- conv3
I0309 19:22:53.414026 23865 net.cpp:399] conv4 -> conv4
I0309 19:22:53.440645 23865 net.cpp:141] Setting up conv4
I0309 19:22:53.440754 23865 net.cpp:148] Top shape: 256 384 13 13 (16613376)
I0309 19:22:53.440783 23865 net.cpp:156] Memory required for data: 1566535680
I0309 19:22:53.440814 23865 layer_factory.hpp:77] Creating layer relu4
I0309 19:22:53.440850 23865 net.cpp:91] Creating Layer relu4
I0309 19:22:53.440878 23865 net.cpp:425] relu4 <- conv4
I0309 19:22:53.440910 23865 net.cpp:386] relu4 -> conv4 (in-place)
I0309 19:22:53.440945 23865 net.cpp:141] Setting up relu4
I0309 19:22:53.440975 23865 net.cpp:148] Top shape: 256 384 13 13 (16613376)
I0309 19:22:53.441001 23865 net.cpp:156] Memory required for data: 1632989184
I0309 19:22:53.441028 23865 layer_factory.hpp:77] Creating layer conv5
I0309 19:22:53.441068 23865 net.cpp:91] Creating Layer conv5
I0309 19:22:53.441148 23865 net.cpp:425] conv5 <- conv4
I0309 19:22:53.441184 23865 net.cpp:399] conv5 -> conv5
I0309 19:22:53.459100 23865 net.cpp:141] Setting up conv5
I0309 19:22:53.459192 23865 net.cpp:148] Top shape: 256 256 13 13 (11075584)
I0309 19:22:53.459219 23865 net.cpp:156] Memory required for data: 1677291520
I0309 19:22:53.459254 23865 layer_factory.hpp:77] Creating layer relu5
I0309 19:22:53.459288 23865 net.cpp:91] Creating Layer relu5
I0309 19:22:53.459316 23865 net.cpp:425] relu5 <- conv5
I0309 19:22:53.459347 23865 net.cpp:386] relu5 -> conv5 (in-place)
I0309 19:22:53.459380 23865 net.cpp:141] Setting up relu5
I0309 19:22:53.459410 23865 net.cpp:148] Top shape: 256 256 13 13 (11075584)
I0309 19:22:53.459436 23865 net.cpp:156] Memory required for data: 1721593856
I0309 19:22:53.459463 23865 layer_factory.hpp:77] Creating layer pool5
I0309 19:22:53.459496 23865 net.cpp:91] Creating Layer pool5
I0309 19:22:53.459522 23865 net.cpp:425] pool5 <- conv5
I0309 19:22:53.459553 23865 net.cpp:399] pool5 -> pool5
I0309 19:22:53.459622 23865 net.cpp:141] Setting up pool5
I0309 19:22:53.459658 23865 net.cpp:148] Top shape: 256 256 6 6 (2359296)
I0309 19:22:53.459681 23865 net.cpp:156] Memory required for data: 1731031040
I0309 19:22:53.459702 23865 layer_factory.hpp:77] Creating layer fc6
I0309 19:22:53.459782 23865 net.cpp:91] Creating Layer fc6
I0309 19:22:53.459813 23865 net.cpp:425] fc6 <- pool5
I0309 19:22:53.459843 23865 net.cpp:399] fc6 -> fc6
I0309 19:22:53.611995 23868 blocking_queue.cpp:50] Waiting for data
I0309 19:22:55.079354 23865 net.cpp:141] Setting up fc6
I0309 19:22:55.079479 23865 net.cpp:148] Top shape: 256 4096 (1048576)
I0309 19:22:55.079504 23865 net.cpp:156] Memory required for data: 1735225344
I0309 19:22:55.079545 23865 layer_factory.hpp:77] Creating layer relu6
I0309 19:22:55.079574 23865 net.cpp:91] Creating Layer relu6
I0309 19:22:55.079601 23865 net.cpp:425] relu6 <- fc6
I0309 19:22:55.079627 23865 net.cpp:386] relu6 -> fc6 (in-place)
I0309 19:22:55.079659 23865 net.cpp:141] Setting up relu6
I0309 19:22:55.079684 23865 net.cpp:148] Top shape: 256 4096 (1048576)
I0309 19:22:55.079704 23865 net.cpp:156] Memory required for data: 1739419648
I0309 19:22:55.079722 23865 layer_factory.hpp:77] Creating layer drop6
I0309 19:22:55.079746 23865 net.cpp:91] Creating Layer drop6
I0309 19:22:55.079766 23865 net.cpp:425] drop6 <- fc6
I0309 19:22:55.079788 23865 net.cpp:386] drop6 -> fc6 (in-place)
I0309 19:22:55.079833 23865 net.cpp:141] Setting up drop6
I0309 19:22:55.079875 23865 net.cpp:148] Top shape: 256 4096 (1048576)
I0309 19:22:55.079896 23865 net.cpp:156] Memory required for data: 1743613952
I0309 19:22:55.079916 23865 layer_factory.hpp:77] Creating layer fc7
I0309 19:22:55.079954 23865 net.cpp:91] Creating Layer fc7
I0309 19:22:55.079977 23865 net.cpp:425] fc7 <- fc6
I0309 19:22:55.080000 23865 net.cpp:399] fc7 -> fc7
I0309 19:22:55.759974 23865 net.cpp:141] Setting up fc7
I0309 19:22:55.760102 23865 net.cpp:148] Top shape: 256 4096 (1048576)
I0309 19:22:55.760124 23865 net.cpp:156] Memory required for data: 1747808256
I0309 19:22:55.760151 23865 layer_factory.hpp:77] Creating layer relu7
I0309 19:22:55.760180 23865 net.cpp:91] Creating Layer relu7
I0309 19:22:55.760202 23865 net.cpp:425] relu7 <- fc7
I0309 19:22:55.760231 23865 net.cpp:386] relu7 -> fc7 (in-place)
I0309 19:22:55.760262 23865 net.cpp:141] Setting up relu7
I0309 19:22:55.760285 23865 net.cpp:148] Top shape: 256 4096 (1048576)
I0309 19:22:55.760304 23865 net.cpp:156] Memory required for data: 1752002560
I0309 19:22:55.760324 23865 layer_factory.hpp:77] Creating layer drop7
I0309 19:22:55.760347 23865 net.cpp:91] Creating Layer drop7
I0309 19:22:55.760367 23865 net.cpp:425] drop7 <- fc7
I0309 19:22:55.760388 23865 net.cpp:386] drop7 -> fc7 (in-place)
I0309 19:22:55.760426 23865 net.cpp:141] Setting up drop7
I0309 19:22:55.760454 23865 net.cpp:148] Top shape: 256 4096 (1048576)
I0309 19:22:55.760474 23865 net.cpp:156] Memory required for data: 1756196864
I0309 19:22:55.760493 23865 layer_factory.hpp:77] Creating layer fc8_25
I0309 19:22:55.760581 23865 net.cpp:91] Creating Layer fc8_25
I0309 19:22:55.760609 23865 net.cpp:425] fc8_25 <- fc7
I0309 19:22:55.760637 23865 net.cpp:399] fc8_25 -> fc8_25
I0309 19:22:55.765269 23865 net.cpp:141] Setting up fc8_25
I0309 19:22:55.765310 23865 net.cpp:148] Top shape: 256 25 (6400)
I0309 19:22:55.765331 23865 net.cpp:156] Memory required for data: 1756222464
I0309 19:22:55.765354 23865 layer_factory.hpp:77] Creating layer loss
I0309 19:22:55.765378 23865 net.cpp:91] Creating Layer loss
I0309 19:22:55.765398 23865 net.cpp:425] loss <- fc8_25
I0309 19:22:55.765420 23865 net.cpp:425] loss <- label
I0309 19:22:55.765446 23865 net.cpp:399] loss -> loss
I0309 19:22:55.765514 23865 layer_factory.hpp:77] Creating layer loss
…
I0309 19:22:55.768863 23865 net.cpp:313] The NetState phase (1) differed from the phase (0) specified by a rule in layer data
I0309 19:22:55.769062 23865 net.cpp:49] Initializing net from parameters: 
name: "CaffeNet"
state {
  phase: TEST
}
layer {
  name: "data"
  type: "Data"
  top: "data"
  top: "label"
  include {
    phase: TEST
  }
  transform_param {
    mirror: false
    crop_size: 227
    mean_file: "data/imagenet25/imagenet25_mean.protobinary"
  }
  data_param {
    source: "examples/imagenet25/val_lmdb"
    batch_size: 50
    backend: LMDB
  }
}
layer {
  name: "conv1"
  type: "Convolution"
  bottom: "data"
  top: "conv1"
  param {
    lr_mult: 0
    decay_mult: 1
  }
  param {
    lr_mult: 0
    decay_mult: 0
  }
  convolution_param {
    num_output: 96
    kernel_size: 11
    stride: 4
    weight_filler {
      type: "gaussian"
      std: 0.01
    }
    bias_filler {
      type: "constant"
      value: 0
    }
  }
}
layer {
  name: "relu1"
  type: "ReLU"
  bottom: "conv1"
  top: "conv1"
}
layer {
  name: "pool1"
  type: "Pooling"
  bottom: "conv1"
  top: "pool1"
  pooling_param {
    pool: MAX
    kernel_size: 3
    stride: 2
  }
}
layer {
  name: "norm1"
  type: "LRN"
  bottom: "pool1"
  top: "norm1"
  lrn_param {
    local_size: 5
    alpha: 0.0001
    beta: 0.75
  }
}
layer {
  name: "conv2"
  type: "Convolution"
  bottom: "norm1"
  top: "conv2"
  param {
    lr_mult: 0
    decay_mult: 1
  }
  param {
    lr_mult: 0
    decay_mult: 0
  }
  convolution_param {
    num_output: 256
    pad: 2
    kernel_size: 5
    group: 2
    weight_filler {
      type: "gaussian"
      std: 0.01
    }
    bias_filler {
      type: "constant"
      value: 1
    }
  }
}
layer {
  name: "relu2"
  type: "ReLU"
  bottom: "conv2"
  top: "conv2"
}
layer {
  name: "pool2"
  type: "Pooling"
  bottom: "conv2"
  top: "pool2"
  pooling_param {
    pool: MAX
    kernel_size: 3
    stride: 2
  }
}
layer {
  name: "norm2"
  type: "LRN"
  bottom: "pool2"
  top: "norm2"
  lrn_param {
    local_size: 5
    alpha: 0.0001
    beta: 0.75
  }
}
layer {
  name: "conv3"
  type: "Convolution"
  bottom: "norm2"
  top: "conv3"
  param {
    lr_mult: 0
    decay_mult: 1
  }
  param {
    lr_mult: 0
    decay_mult: 0
  }
  convolution_param {
    num_output: 384
    pad: 1
    kernel_size: 3
    weight_filler {
      type: "gaussian"
      std: 0.01
    }
    bias_filler {
      type: "constant"
      value: 0
    }
  }
}
layer {
  name: "relu3"
  type: "ReLU"
  bottom: "conv3"
  top: "conv3"
}
layer {
  name: "conv4"
  type: "Convolution"
  bottom: "conv3"
  top: "conv4"
  param {
    lr_mult: 0
    decay_mult: 1
  }
  param {
    lr_mult: 0
    decay_mult: 0
  }
  convolution_param {
    num_output: 384
    pad: 1
    kernel_size: 3
    group: 2
    weight_filler {
      type: "gaussian"
      std: 0.01
    }
    bias_filler {
      type: "constant"
      value: 1
    }
  }
}
layer {
  name: "relu4"
  type: "ReLU"
  bottom: "conv4"
  top: "conv4"
}
layer {
  name: "conv5"
  type: "Convolution"
  bottom: "conv4"
  top: "conv5"
  param {
    lr_mult: 0
    decay_mult: 1
  }
  param {
    lr_mult: 0
    decay_mult: 0
  }
  convolution_param {
    num_output: 256
    pad: 1
    kernel_size: 3
    group: 2
    weight_filler {
      type: "gaussian"
      std: 0.01
    }
    bias_filler {
      type: "constant"
      value: 1
    }
  }
}
layer {
  name: "relu5"
  type: "ReLU"
  bottom: "conv5"
  top: "conv5"
}
layer {
  name: "pool5"
  type: "Pooling"
  bottom: "conv5"
  top: "pool5"
  pooling_param {
    pool: MAX
    kernel_size: 3
    stride: 2
  }
}
layer {
  name: "fc6"
  type: "InnerProduct"
  bottom: "pool5"
  top: "fc6"
  param {
    lr_mult: 0
    decay_mult: 1
  }
  param {
    lr_mult: 0
    decay_mult: 0
  }
  inner_product_param {
    num_output: 4096
    weight_filler {
      type: "gaussian"
      std: 0.005
    }
    bias_filler {
      type: "constant"
      value: 1
    }
  }
}
layer {
  name: "relu6"
  type: "ReLU"
  bottom: "fc6"
  top: "fc6"
}
layer {
  name: "drop6"
  type: "Dropout"
  bottom: "fc6"
  top: "fc6"
  dropout_param {
    dropout_ratio: 0.5
  }
}
layer {
  name: "fc7"
  type: "InnerProduct"
  bottom: "fc6"
  top: "fc7"
  param {
    lr_mult: 1
    decay_mult: 1
  }
  param {
    lr_mult: 2
    decay_mult: 0
  }
  inner_product_param {
    num_output: 4096
    weight_filler {
      type: "gaussian"
      std: 0.005
    }
    bias_filler {
      type: "constant"
      value: 1
    }
  }
}
layer {
  name: "relu7"
  type: "ReLU"
  bottom: "fc7"
  top: "fc7"
}
layer {
  name: "drop7"
  type: "Dropout"
  bottom: "fc7"
  top: "fc7"
  dropout_param {
    dropout_ratio: 0.5
  }
}
layer {
  name: "fc8_25"
  type: "InnerProduct"
  bottom: "fc7"
  top: "fc8_25"
  param {
    lr_mult: 1
    decay_mult: 1
  }
  param {
    lr_mult: 2
    decay_mult: 0
  }
  inner_product_param {
    num_output: 25
    weight_filler {
      type: "gaussian"
      std: 0.01
    }
    bias_filler {
      type: "constant"
      value: 0
    }
  }
}
layer {
  name: "accuracy"
  type: "Accuracy"
  bottom: "fc8_25"
  bottom: "label"
  top: "accuracy"
  include {
    phase: TEST
  }
}
layer {
  name: "loss"
  type: "SoftmaxWithLoss"
  bottom: "fc8_25"
  bottom: "label"
  top: "loss"
}
I0309 19:22:55.769225 23865 layer_factory.hpp:77] Creating layer data
I0309 19:22:55.769389 23865 net.cpp:91] Creating Layer data
I0309 19:22:55.769439 23865 net.cpp:399] data -> data
I0309 19:22:55.769474 23865 net.cpp:399] data -> label
I0309 19:22:55.769505 23865 data_transformer.cpp:25] Loading mean file from: data/imagenet25/imagenet25_mean.protobinary
I0309 19:22:55.867868 23869 db_lmdb.cpp:38] Opened lmdb examples/imagenet25/val_lmdb
I0309 19:22:55.870261 23865 data_layer.cpp:41] output data size: 50,3,227,227
I0309 19:22:55.928300 23865 net.cpp:141] Setting up data
I0309 19:22:55.928449 23865 net.cpp:148] Top shape: 50 3 227 227 (7729350)
I0309 19:22:55.928479 23865 net.cpp:148] Top shape: 50 (50)
I0309 19:22:55.928503 23865 net.cpp:156] Memory required for data: 30917600
I0309 19:22:55.928529 23865 layer_factory.hpp:77] Creating layer label_data_1_split
I0309 19:22:55.928563 23865 net.cpp:91] Creating Layer label_data_1_split
I0309 19:22:55.928588 23865 net.cpp:425] label_data_1_split <- label
I0309 19:22:55.928634 23865 net.cpp:399] label_data_1_split -> label_data_1_split_0
I0309 19:22:55.928678 23865 net.cpp:399] label_data_1_split -> label_data_1_split_1
I0309 19:22:55.928748 23865 net.cpp:141] Setting up label_data_1_split
I0309 19:22:55.928778 23865 net.cpp:148] Top shape: 50 (50)
I0309 19:22:55.928800 23865 net.cpp:148] Top shape: 50 (50)
I0309 19:22:55.928819 23865 net.cpp:156] Memory required for data: 30918000
I0309 19:22:55.928839 23865 layer_factory.hpp:77] Creating layer conv1
I0309 19:22:55.928869 23865 net.cpp:91] Creating Layer conv1
I0309 19:22:55.928892 23865 net.cpp:425] conv1 <- data
I0309 19:22:55.928938 23865 net.cpp:399] conv1 -> conv1
I0309 19:22:55.932610 23865 net.cpp:141] Setting up conv1
I0309 19:22:55.932662 23865 net.cpp:148] Top shape: 50 96 55 55 (14520000)
I0309 19:22:55.932703 23865 net.cpp:156] Memory required for data: 88998000
I0309 19:22:55.932736 23865 layer_factory.hpp:77] Creating layer relu1
I0309 19:22:55.932770 23865 net.cpp:91] Creating Layer relu1
I0309 19:22:55.932796 23865 net.cpp:425] relu1 <- conv1
I0309 19:22:55.932826 23865 net.cpp:386] relu1 -> conv1 (in-place)
I0309 19:22:55.932858 23865 net.cpp:141] Setting up relu1
I0309 19:22:55.932889 23865 net.cpp:148] Top shape: 50 96 55 55 (14520000)
I0309 19:22:55.932915 23865 net.cpp:156] Memory required for data: 147078000
I0309 19:22:55.932937 23865 layer_factory.hpp:77] Creating layer pool1
I0309 19:22:55.932962 23865 net.cpp:91] Creating Layer pool1
I0309 19:22:55.932996 23865 net.cpp:425] pool1 <- conv1
I0309 19:22:55.933020 23865 net.cpp:399] pool1 -> pool1
I0309 19:22:55.933079 23865 net.cpp:141] Setting up pool1
I0309 19:22:55.933115 23865 net.cpp:148] Top shape: 50 96 27 27 (3499200)
I0309 19:22:55.933140 23865 net.cpp:156] Memory required for data: 161074800
I0309 19:22:55.933164 23865 layer_factory.hpp:77] Creating layer norm1
I0309 19:22:55.933194 23865 net.cpp:91] Creating Layer norm1
I0309 19:22:55.933221 23865 net.cpp:425] norm1 <- pool1
I0309 19:22:55.933250 23865 net.cpp:399] norm1 -> norm1
I0309 19:22:55.933305 23865 net.cpp:141] Setting up norm1
I0309 19:22:55.933338 23865 net.cpp:148] Top shape: 50 96 27 27 (3499200)
I0309 19:22:55.933362 23865 net.cpp:156] Memory required for data: 175071600
I0309 19:22:55.933389 23865 layer_factory.hpp:77] Creating layer conv2
I0309 19:22:55.933421 23865 net.cpp:91] Creating Layer conv2
I0309 19:22:55.933449 23865 net.cpp:425] conv2 <- norm1
I0309 19:22:55.933477 23865 net.cpp:399] conv2 -> conv2
I0309 19:22:55.945494 23865 net.cpp:141] Setting up conv2
I0309 19:22:55.945535 23865 net.cpp:148] Top shape: 50 256 27 27 (9331200)
I0309 19:22:55.945559 23865 net.cpp:156] Memory required for data: 212396400
I0309 19:22:55.945585 23865 layer_factory.hpp:77] Creating layer relu2
I0309 19:22:55.945642 23865 net.cpp:91] Creating Layer relu2
I0309 19:22:55.945703 23865 net.cpp:425] relu2 <- conv2
I0309 19:22:55.945730 23865 net.cpp:386] relu2 -> conv2 (in-place)
I0309 19:22:55.945761 23865 net.cpp:141] Setting up relu2
I0309 19:22:55.945790 23865 net.cpp:148] Top shape: 50 256 27 27 (9331200)
I0309 19:22:55.945814 23865 net.cpp:156] Memory required for data: 249721200
I0309 19:22:55.945839 23865 layer_factory.hpp:77] Creating layer pool2
I0309 19:22:55.945870 23865 net.cpp:91] Creating Layer pool2
I0309 19:22:55.945899 23865 net.cpp:425] pool2 <- conv2
I0309 19:22:55.945926 23865 net.cpp:399] pool2 -> pool2
I0309 19:22:55.945988 23865 net.cpp:141] Setting up pool2
I0309 19:22:55.946024 23865 net.cpp:148] Top shape: 50 256 13 13 (2163200)
I0309 19:22:55.946049 23865 net.cpp:156] Memory required for data: 258374000
I0309 19:22:55.946075 23865 layer_factory.hpp:77] Creating layer norm2
I0309 19:22:55.946105 23865 net.cpp:91] Creating Layer norm2
I0309 19:22:55.946133 23865 net.cpp:425] norm2 <- pool2
I0309 19:22:55.946161 23865 net.cpp:399] norm2 -> norm2
I0309 19:22:55.946219 23865 net.cpp:141] Setting up norm2
I0309 19:22:55.946250 23865 net.cpp:148] Top shape: 50 256 13 13 (2163200)
I0309 19:22:55.946274 23865 net.cpp:156] Memory required for data: 267026800
I0309 19:22:55.946296 23865 layer_factory.hpp:77] Creating layer conv3
I0309 19:22:55.946327 23865 net.cpp:91] Creating Layer conv3
I0309 19:22:55.946352 23865 net.cpp:425] conv3 <- norm2
I0309 19:22:55.946382 23865 net.cpp:399] conv3 -> conv3
I0309 19:22:55.980938 23865 net.cpp:141] Setting up conv3
I0309 19:22:55.980983 23865 net.cpp:148] Top shape: 50 384 13 13 (3244800)
I0309 19:22:55.981010 23865 net.cpp:156] Memory required for data: 280006000
I0309 19:22:55.981042 23865 layer_factory.hpp:77] Creating layer relu3
I0309 19:22:55.981073 23865 net.cpp:91] Creating Layer relu3
I0309 19:22:55.981099 23865 net.cpp:425] relu3 <- conv3
I0309 19:22:55.981129 23865 net.cpp:386] relu3 -> conv3 (in-place)
I0309 19:22:55.981160 23865 net.cpp:141] Setting up relu3
I0309 19:22:55.981189 23865 net.cpp:148] Top shape: 50 384 13 13 (3244800)
I0309 19:22:55.981215 23865 net.cpp:156] Memory required for data: 292985200
I0309 19:22:55.981240 23865 layer_factory.hpp:77] Creating layer conv4
I0309 19:22:55.981271 23865 net.cpp:91] Creating Layer conv4
I0309 19:22:55.981298 23865 net.cpp:425] conv4 <- conv3
I0309 19:22:55.981328 23865 net.cpp:399] conv4 -> conv4
I0309 19:22:56.007292 23865 net.cpp:141] Setting up conv4
I0309 19:22:56.007349 23865 net.cpp:148] Top shape: 50 384 13 13 (3244800)
I0309 19:22:56.007376 23865 net.cpp:156] Memory required for data: 305964400
I0309 19:22:56.007407 23865 layer_factory.hpp:77] Creating layer relu4
I0309 19:22:56.007436 23865 net.cpp:91] Creating Layer relu4
I0309 19:22:56.007460 23865 net.cpp:425] relu4 <- conv4
I0309 19:22:56.007484 23865 net.cpp:386] relu4 -> conv4 (in-place)
I0309 19:22:56.007516 23865 net.cpp:141] Setting up relu4
I0309 19:22:56.007547 23865 net.cpp:148] Top shape: 50 384 13 13 (3244800)
I0309 19:22:56.007586 23865 net.cpp:156] Memory required for data: 318943600
I0309 19:22:56.007619 23865 layer_factory.hpp:77] Creating layer conv5
I0309 19:22:56.007652 23865 net.cpp:91] Creating Layer conv5
I0309 19:22:56.007679 23865 net.cpp:425] conv5 <- conv4
I0309 19:22:56.007707 23865 net.cpp:399] conv5 -> conv5
I0309 19:22:56.024871 23865 net.cpp:141] Setting up conv5
I0309 19:22:56.024912 23865 net.cpp:148] Top shape: 50 256 13 13 (2163200)
I0309 19:22:56.024945 23865 net.cpp:156] Memory required for data: 327596400
I0309 19:22:56.024971 23865 layer_factory.hpp:77] Creating layer relu5
I0309 19:22:56.025008 23865 net.cpp:91] Creating Layer relu5
I0309 19:22:56.025032 23865 net.cpp:425] relu5 <- conv5
I0309 19:22:56.025069 23865 net.cpp:386] relu5 -> conv5 (in-place)
I0309 19:22:56.025104 23865 net.cpp:141] Setting up relu5
I0309 19:22:56.025133 23865 net.cpp:148] Top shape: 50 256 13 13 (2163200)
I0309 19:22:56.025161 23865 net.cpp:156] Memory required for data: 336249200
I0309 19:22:56.025202 23865 layer_factory.hpp:77] Creating layer pool5
I0309 19:22:56.025264 23865 net.cpp:91] Creating Layer pool5
I0309 19:22:56.025295 23865 net.cpp:425] pool5 <- conv5
I0309 19:22:56.025338 23865 net.cpp:399] pool5 -> pool5
I0309 19:22:56.025450 23865 net.cpp:141] Setting up pool5
I0309 19:22:56.025485 23865 net.cpp:148] Top shape: 50 256 6 6 (460800)
I0309 19:22:56.025507 23865 net.cpp:156] Memory required for data: 338092400
I0309 19:22:56.025527 23865 layer_factory.hpp:77] Creating layer fc6
I0309 19:22:56.025554 23865 net.cpp:91] Creating Layer fc6
I0309 19:22:56.025581 23865 net.cpp:425] fc6 <- pool5
I0309 19:22:56.025617 23865 net.cpp:399] fc6 -> fc6
I0309 19:22:57.418691 23865 net.cpp:141] Setting up fc6
I0309 19:22:57.418819 23865 net.cpp:148] Top shape: 50 4096 (204800)
I0309 19:22:57.418843 23865 net.cpp:156] Memory required for data: 338911600
I0309 19:22:57.418870 23865 layer_factory.hpp:77] Creating layer relu6
I0309 19:22:57.418902 23865 net.cpp:91] Creating Layer relu6
I0309 19:22:57.418926 23865 net.cpp:425] relu6 <- fc6
I0309 19:22:57.418951 23865 net.cpp:386] relu6 -> fc6 (in-place)
I0309 19:22:57.418982 23865 net.cpp:141] Setting up relu6
I0309 19:22:57.419005 23865 net.cpp:148] Top shape: 50 4096 (204800)
I0309 19:22:57.419025 23865 net.cpp:156] Memory required for data: 339730800
I0309 19:22:57.419044 23865 layer_factory.hpp:77] Creating layer drop6
I0309 19:22:57.419069 23865 net.cpp:91] Creating Layer drop6
I0309 19:22:57.419088 23865 net.cpp:425] drop6 <- fc6
I0309 19:22:57.419113 23865 net.cpp:386] drop6 -> fc6 (in-place)
I0309 19:22:57.419159 23865 net.cpp:141] Setting up drop6
I0309 19:22:57.419188 23865 net.cpp:148] Top shape: 50 4096 (204800)
I0309 19:22:57.419209 23865 net.cpp:156] Memory required for data: 340550000
I0309 19:22:57.419227 23865 layer_factory.hpp:77] Creating layer fc7
I0309 19:22:57.419255 23865 net.cpp:91] Creating Layer fc7
I0309 19:22:57.419278 23865 net.cpp:425] fc7 <- fc6
I0309 19:22:57.419301 23865 net.cpp:399] fc7 -> fc7
I0309 19:22:58.031711 23865 net.cpp:141] Setting up fc7
I0309 19:22:58.031841 23865 net.cpp:148] Top shape: 50 4096 (204800)
I0309 19:22:58.031863 23865 net.cpp:156] Memory required for data: 341369200
I0309 19:22:58.031890 23865 layer_factory.hpp:77] Creating layer relu7
I0309 19:22:58.031919 23865 net.cpp:91] Creating Layer relu7
I0309 19:22:58.031942 23865 net.cpp:425] relu7 <- fc7
I0309 19:22:58.031968 23865 net.cpp:386] relu7 -> fc7 (in-place)
I0309 19:22:58.031999 23865 net.cpp:141] Setting up relu7
I0309 19:22:58.032023 23865 net.cpp:148] Top shape: 50 4096 (204800)
I0309 19:22:58.032042 23865 net.cpp:156] Memory required for data: 342188400
I0309 19:22:58.032063 23865 layer_factory.hpp:77] Creating layer drop7
I0309 19:22:58.032088 23865 net.cpp:91] Creating Layer drop7
I0309 19:22:58.032110 23865 net.cpp:425] drop7 <- fc7
I0309 19:22:58.032133 23865 net.cpp:386] drop7 -> fc7 (in-place)
I0309 19:22:58.032181 23865 net.cpp:141] Setting up drop7
I0309 19:22:58.032210 23865 net.cpp:148] Top shape: 50 4096 (204800)
I0309 19:22:58.032232 23865 net.cpp:156] Memory required for data: 343007600
I0309 19:22:58.032251 23865 layer_factory.hpp:77] Creating layer fc8_25
I0309 19:22:58.032275 23865 net.cpp:91] Creating Layer fc8_25
I0309 19:22:58.032297 23865 net.cpp:425] fc8_25 <- fc7
I0309 19:22:58.032323 23865 net.cpp:399] fc8_25 -> fc8_25
I0309 19:22:58.036010 23865 net.cpp:141] Setting up fc8_25
I0309 19:22:58.036043 23865 net.cpp:148] Top shape: 50 25 (1250)
I0309 19:22:58.036064 23865 net.cpp:156] Memory required for data: 343012600
I0309 19:22:58.036088 23865 layer_factory.hpp:77] Creating layer fc8_25_fc8_25_0_split
I0309 19:22:58.036113 23865 net.cpp:91] Creating Layer fc8_25_fc8_25_0_split
I0309 19:22:58.036134 23865 net.cpp:425] fc8_25_fc8_25_0_split <- fc8_25
I0309 19:22:58.036159 23865 net.cpp:399] fc8_25_fc8_25_0_split -> fc8_25_fc8_25_0_split_0
I0309 19:22:58.036185 23865 net.cpp:399] fc8_25_fc8_25_0_split -> fc8_25_fc8_25_0_split_1
I0309 19:22:58.036237 23865 net.cpp:141] Setting up fc8_25_fc8_25_0_split
I0309 19:22:58.036267 23865 net.cpp:148] Top shape: 50 25 (1250)
I0309 19:22:58.036356 23865 net.cpp:148] Top shape: 50 25 (1250)
I0309 19:22:58.036381 23865 net.cpp:156] Memory required for data: 343022600
I0309 19:22:58.036401 23865 layer_factory.hpp:77] Creating layer accuracy
I0309 19:22:58.036427 23865 net.cpp:91] Creating Layer accuracy
I0309 19:22:58.036449 23865 net.cpp:425] accuracy <- fc8_25_fc8_25_0_split_0
I0309 19:22:58.036470 23865 net.cpp:425] accuracy <- label_data_1_split_0
I0309 19:22:58.036494 23865 net.cpp:399] accuracy -> accuracy
…
