…
I0309 23:23:15.555136 54739 net.cpp:313] The NetState phase (0) differed from the phase (1) specified by a rule in layer accuracy
I0309 23:23:15.555336 54739 net.cpp:49] Initializing net from parameters: 
name: "CaffeNet"
state {
  phase: TRAIN
}
layer {
  name: "data"
  type: "Data"
  top: "data"
  top: "label"
  include {
    phase: TRAIN
  }
  transform_param {
    mirror: true
    crop_size: 227
    mean_file: "data/imagenet25/imagenet25_mean.protobinary"
  }
  data_param {
    source: "examples/imagenet25/train_lmdb"
    batch_size: 256
    backend: LMDB
  }
}
layer {
  name: "conv1"
  type: "Convolution"
  bottom: "data"
  top: "conv1"
  param {
    lr_mult: 0
    decay_mult: 1
  }
  param {
    lr_mult: 0
    decay_mult: 0
  }
  convolution_param {
    num_output: 96
    kernel_size: 11
    stride: 4
    weight_filler {
      type: "gaussian"
      std: 0.01
    }
    bias_filler {
      type: "constant"
      value: 0
    }
  }
}
layer {
  name: "relu1"
  type: "ReLU"
  bottom: "conv1"
  top: "conv1"
}
layer {
  name: "pool1"
  type: "Pooling"
  bottom: "conv1"
  top: "pool1"
  pooling_param {
    pool: MAX
    kernel_size: 3
    stride: 2
  }
}
layer {
  name: "norm1"
  type: "LRN"
  bottom: "pool1"
  top: "norm1"
  lrn_param {
    local_size: 5
    alpha: 0.0001
    beta: 0.75
  }
}
layer {
  name: "conv2"
  type: "Convolution"
  bottom: "norm1"
  top: "conv2"
  param {
    lr_mult: 0
    decay_mult: 1
  }
  param {
    lr_mult: 0
    decay_mult: 0
  }
  convolution_param {
    num_output: 256
    pad: 2
    kernel_size: 5
    group: 2
    weight_filler {
      type: "gaussian"
      std: 0.01
    }
    bias_filler {
      type: "constant"
      value: 1
    }
  }
}
layer {
  name: "relu2"
  type: "ReLU"
  bottom: "conv2"
  top: "conv2"
}
layer {
  name: "pool2"
  type: "Pooling"
  bottom: "conv2"
  top: "pool2"
  pooling_param {
    pool: MAX
    kernel_size: 3
    stride: 2
  }
}
layer {
  name: "norm2"
  type: "LRN"
  bottom: "pool2"
  top: "norm2"
  lrn_param {
    local_size: 5
    alpha: 0.0001
    beta: 0.75
  }
}
layer {
  name: "conv3"
  type: "Convolution"
  bottom: "norm2"
  top: "conv3"
  param {
    lr_mult: 0
    decay_mult: 1
  }
  param {
    lr_mult: 0
    decay_mult: 0
  }
  convolution_param {
    num_output: 384
    pad: 1
    kernel_size: 3
    weight_filler {
      type: "gaussian"
      std: 0.01
    }
    bias_filler {
      type: "constant"
      value: 0
    }
  }
}
layer {
  name: "relu3"
  type: "ReLU"
  bottom: "conv3"
  top: "conv3"
}
layer {
  name: "conv4"
  type: "Convolution"
  bottom: "conv3"
  top: "conv4"
  param {
    lr_mult: 0
    decay_mult: 1
  }
  param {
    lr_mult: 0
    decay_mult: 0
  }
  convolution_param {
    num_output: 384
    pad: 1
    kernel_size: 3
    group: 2
    weight_filler {
      type: "gaussian"
      std: 0.01
    }
    bias_filler {
      type: "constant"
      value: 1
    }
  }
}
layer {
  name: "relu4"
  type: "ReLU"
  bottom: "conv4"
  top: "conv4"
}
layer {
  name: "conv5"
  type: "Convolution"
  bottom: "conv4"
  top: "conv5"
  param {
    lr_mult: 0
    decay_mult: 1
  }
  param {
    lr_mult: 0
    decay_mult: 0
  }
  convolution_param {
    num_output: 256
    pad: 1
    kernel_size: 3
    group: 2
    weight_filler {
      type: "gaussian"
      std: 0.01
    }
    bias_filler {
      type: "constant"
      value: 1
    }
  }
}
layer {
  name: "relu5"
  type: "ReLU"
  bottom: "conv5"
  top: "conv5"
}
layer {
  name: "pool5"
  type: "Pooling"
  bottom: "conv5"
  top: "pool5"
  pooling_param {
    pool: MAX
    kernel_size: 3
    stride: 2
  }
}
layer {
  name: "fc6"
  type: "InnerProduct"
  bottom: "pool5"
  top: "fc6"
  param {
    lr_mult: 0
    decay_mult: 1
  }
  param {
    lr_mult: 0
    decay_mult: 0
  }
  inner_product_param {
    num_output: 4096
    weight_filler {
      type: "gaussian"
      std: 0.005
    }
    bias_filler {
      type: "constant"
      value: 1
    }
  }
}
layer {
  name: "relu6"
  type: "ReLU"
  bottom: "fc6"
  top: "fc6"
}
layer {
  name: "drop6"
  type: "Dropout"
  bottom: "fc6"
  top: "fc6"
  dropout_param {
    dropout_ratio: 0.5
  }
}
layer {
  name: "fc7"
  type: "InnerProduct"
  bottom: "fc6"
  top: "fc7"
  param {
    lr_mult: 1
    decay_mult: 1
  }
  param {
    lr_mult: 2
    decay_mult: 0
  }
  inner_product_param {
    num_output: 4096
    weight_filler {
      type: "gaussian"
      std: 0.005
    }
    bias_filler {
      type: "constant"
      value: 1
    }
  }
}
layer {
  name: "relu7"
  type: "ReLU"
  bottom: "fc7"
  top: "fc7"
}
layer {
  name: "drop7"
  type: "Dropout"
  bottom: "fc7"
  top: "fc7"
  dropout_param {
    dropout_ratio: 0.5
  }
}
layer {
  name: "fc8_25"
  type: "InnerProduct"
  bottom: "fc7"
  top: "fc8_25"
  param {
    lr_mult: 1
    decay_mult: 1
  }
  param {
    lr_mult: 2
    decay_mult: 0
  }
  inner_product_param {
    num_output: 25
    weight_filler {
      type: "gaussian"
      std: 0.01
    }
    bias_filler {
      type: "constant"
      value: 0
    }
  }
}
layer {
  name: "loss"
  type: "SoftmaxWithLoss"
  bottom: "fc8_25"
  bottom: "label"
  top: "loss"
}
I0309 23:23:15.555621 54739 layer_factory.hpp:77] Creating layer data
I0309 23:23:15.556406 54739 net.cpp:91] Creating Layer data
I0309 23:23:15.556463 54739 net.cpp:399] data -> data
I0309 23:23:15.556556 54739 net.cpp:399] data -> label
I0309 23:23:15.556648 54739 data_transformer.cpp:25] Loading mean file from: data/imagenet25/imagenet25_mean.protobinary
I0309 23:23:15.592545 54742 db_lmdb.cpp:38] Opened lmdb examples/imagenet25/train_lmdb
I0309 23:23:15.619339 54739 data_layer.cpp:41] output data size: 256,3,227,227
I0309 23:23:15.929972 54739 net.cpp:141] Setting up data
I0309 23:23:15.930075 54739 net.cpp:148] Top shape: 256 3 227 227 (39574272)
I0309 23:23:15.930109 54739 net.cpp:148] Top shape: 256 (256)
I0309 23:23:15.930135 54739 net.cpp:156] Memory required for data: 158298112
I0309 23:23:15.930176 54739 layer_factory.hpp:77] Creating layer conv1
I0309 23:23:15.930245 54739 net.cpp:91] Creating Layer conv1
I0309 23:23:15.930284 54739 net.cpp:425] conv1 <- data
I0309 23:23:15.930328 54739 net.cpp:399] conv1 -> conv1
I0309 23:23:15.948766 54739 net.cpp:141] Setting up conv1
I0309 23:23:15.948804 54739 net.cpp:148] Top shape: 256 96 55 55 (74342400)
I0309 23:23:15.948830 54739 net.cpp:156] Memory required for data: 455667712
I0309 23:23:15.948866 54739 layer_factory.hpp:77] Creating layer relu1
I0309 23:23:15.948900 54739 net.cpp:91] Creating Layer relu1
I0309 23:23:15.948928 54739 net.cpp:425] relu1 <- conv1
I0309 23:23:15.948976 54739 net.cpp:386] relu1 -> conv1 (in-place)
I0309 23:23:15.949012 54739 net.cpp:141] Setting up relu1
I0309 23:23:15.949043 54739 net.cpp:148] Top shape: 256 96 55 55 (74342400)
I0309 23:23:15.949069 54739 net.cpp:156] Memory required for data: 753037312
I0309 23:23:15.949096 54739 layer_factory.hpp:77] Creating layer pool1
I0309 23:23:15.949126 54739 net.cpp:91] Creating Layer pool1
I0309 23:23:15.949151 54739 net.cpp:425] pool1 <- conv1
I0309 23:23:15.949179 54739 net.cpp:399] pool1 -> pool1
I0309 23:23:15.949295 54739 net.cpp:141] Setting up pool1
I0309 23:23:15.949332 54739 net.cpp:148] Top shape: 256 96 27 27 (17915904)
I0309 23:23:15.949359 54739 net.cpp:156] Memory required for data: 824700928
I0309 23:23:15.949385 54739 layer_factory.hpp:77] Creating layer norm1
I0309 23:23:15.949419 54739 net.cpp:91] Creating Layer norm1
I0309 23:23:15.949471 54739 net.cpp:425] norm1 <- pool1
I0309 23:23:15.949532 54739 net.cpp:399] norm1 -> norm1
I0309 23:23:15.949630 54739 net.cpp:141] Setting up norm1
I0309 23:23:15.949667 54739 net.cpp:148] Top shape: 256 96 27 27 (17915904)
I0309 23:23:15.949692 54739 net.cpp:156] Memory required for data: 896364544
I0309 23:23:15.949718 54739 layer_factory.hpp:77] Creating layer conv2
I0309 23:23:15.949751 54739 net.cpp:91] Creating Layer conv2
I0309 23:23:15.949780 54739 net.cpp:425] conv2 <- norm1
I0309 23:23:15.949811 54739 net.cpp:399] conv2 -> conv2
I0309 23:23:15.963038 54739 net.cpp:141] Setting up conv2
I0309 23:23:15.963140 54739 net.cpp:148] Top shape: 256 256 27 27 (47775744)
I0309 23:23:15.963186 54739 net.cpp:156] Memory required for data: 1087467520
I0309 23:23:15.963217 54739 layer_factory.hpp:77] Creating layer relu2
I0309 23:23:15.963271 54739 net.cpp:91] Creating Layer relu2
I0309 23:23:15.963299 54739 net.cpp:425] relu2 <- conv2
I0309 23:23:15.963333 54739 net.cpp:386] relu2 -> conv2 (in-place)
I0309 23:23:15.963363 54739 net.cpp:141] Setting up relu2
I0309 23:23:15.963402 54739 net.cpp:148] Top shape: 256 256 27 27 (47775744)
I0309 23:23:15.963425 54739 net.cpp:156] Memory required for data: 1278570496
I0309 23:23:15.963462 54739 layer_factory.hpp:77] Creating layer pool2
I0309 23:23:15.963497 54739 net.cpp:91] Creating Layer pool2
I0309 23:23:15.963528 54739 net.cpp:425] pool2 <- conv2
I0309 23:23:15.963560 54739 net.cpp:399] pool2 -> pool2
I0309 23:23:15.963634 54739 net.cpp:141] Setting up pool2
I0309 23:23:15.963685 54739 net.cpp:148] Top shape: 256 256 13 13 (11075584)
I0309 23:23:15.963723 54739 net.cpp:156] Memory required for data: 1322872832
I0309 23:23:15.963750 54739 layer_factory.hpp:77] Creating layer norm2
I0309 23:23:15.963795 54739 net.cpp:91] Creating Layer norm2
I0309 23:23:15.963824 54739 net.cpp:425] norm2 <- pool2
I0309 23:23:15.963852 54739 net.cpp:399] norm2 -> norm2
I0309 23:23:15.963912 54739 net.cpp:141] Setting up norm2
I0309 23:23:15.963943 54739 net.cpp:148] Top shape: 256 256 13 13 (11075584)
I0309 23:23:15.963964 54739 net.cpp:156] Memory required for data: 1367175168
I0309 23:23:15.963987 54739 layer_factory.hpp:77] Creating layer conv3
I0309 23:23:15.964021 54739 net.cpp:91] Creating Layer conv3
I0309 23:23:15.964049 54739 net.cpp:425] conv3 <- norm2
I0309 23:23:15.964082 54739 net.cpp:399] conv3 -> conv3
I0309 23:23:16.000226 54739 net.cpp:141] Setting up conv3
I0309 23:23:16.000341 54739 net.cpp:148] Top shape: 256 384 13 13 (16613376)
I0309 23:23:16.000370 54739 net.cpp:156] Memory required for data: 1433628672
I0309 23:23:16.000406 54739 layer_factory.hpp:77] Creating layer relu3
I0309 23:23:16.000440 54739 net.cpp:91] Creating Layer relu3
I0309 23:23:16.000468 54739 net.cpp:425] relu3 <- conv3
I0309 23:23:16.000500 54739 net.cpp:386] relu3 -> conv3 (in-place)
I0309 23:23:16.000537 54739 net.cpp:141] Setting up relu3
I0309 23:23:16.000566 54739 net.cpp:148] Top shape: 256 384 13 13 (16613376)
I0309 23:23:16.000592 54739 net.cpp:156] Memory required for data: 1500082176
I0309 23:23:16.000617 54739 layer_factory.hpp:77] Creating layer conv4
I0309 23:23:16.000653 54739 net.cpp:91] Creating Layer conv4
I0309 23:23:16.000682 54739 net.cpp:425] conv4 <- conv3
I0309 23:23:16.000715 54739 net.cpp:399] conv4 -> conv4
I0309 23:23:16.028048 54739 net.cpp:141] Setting up conv4
I0309 23:23:16.028152 54739 net.cpp:148] Top shape: 256 384 13 13 (16613376)
I0309 23:23:16.028179 54739 net.cpp:156] Memory required for data: 1566535680
I0309 23:23:16.028213 54739 layer_factory.hpp:77] Creating layer relu4
I0309 23:23:16.028247 54739 net.cpp:91] Creating Layer relu4
I0309 23:23:16.028280 54739 net.cpp:425] relu4 <- conv4
I0309 23:23:16.028314 54739 net.cpp:386] relu4 -> conv4 (in-place)
I0309 23:23:16.028350 54739 net.cpp:141] Setting up relu4
I0309 23:23:16.028380 54739 net.cpp:148] Top shape: 256 384 13 13 (16613376)
I0309 23:23:16.028406 54739 net.cpp:156] Memory required for data: 1632989184
I0309 23:23:16.028434 54739 layer_factory.hpp:77] Creating layer conv5
I0309 23:23:16.028470 54739 net.cpp:91] Creating Layer conv5
I0309 23:23:16.028553 54739 net.cpp:425] conv5 <- conv4
I0309 23:23:16.028583 54739 net.cpp:399] conv5 -> conv5
I0309 23:23:16.046967 54739 net.cpp:141] Setting up conv5
I0309 23:23:16.047056 54739 net.cpp:148] Top shape: 256 256 13 13 (11075584)
I0309 23:23:16.047083 54739 net.cpp:156] Memory required for data: 1677291520
I0309 23:23:16.047117 54739 layer_factory.hpp:77] Creating layer relu5
I0309 23:23:16.047149 54739 net.cpp:91] Creating Layer relu5
I0309 23:23:16.047176 54739 net.cpp:425] relu5 <- conv5
I0309 23:23:16.047209 54739 net.cpp:386] relu5 -> conv5 (in-place)
I0309 23:23:16.047243 54739 net.cpp:141] Setting up relu5
I0309 23:23:16.047277 54739 net.cpp:148] Top shape: 256 256 13 13 (11075584)
I0309 23:23:16.047303 54739 net.cpp:156] Memory required for data: 1721593856
I0309 23:23:16.047329 54739 layer_factory.hpp:77] Creating layer pool5
I0309 23:23:16.047358 54739 net.cpp:91] Creating Layer pool5
I0309 23:23:16.047384 54739 net.cpp:425] pool5 <- conv5
I0309 23:23:16.047412 54739 net.cpp:399] pool5 -> pool5
I0309 23:23:16.047476 54739 net.cpp:141] Setting up pool5
I0309 23:23:16.047519 54739 net.cpp:148] Top shape: 256 256 6 6 (2359296)
I0309 23:23:16.047543 54739 net.cpp:156] Memory required for data: 1731031040
I0309 23:23:16.047564 54739 layer_factory.hpp:77] Creating layer fc6
I0309 23:23:16.047657 54739 net.cpp:91] Creating Layer fc6
I0309 23:23:16.047685 54739 net.cpp:425] fc6 <- pool5
I0309 23:23:16.047714 54739 net.cpp:399] fc6 -> fc6
I0309 23:23:16.231700 54743 blocking_queue.cpp:50] Waiting for data
I0309 23:23:17.526667 54739 net.cpp:141] Setting up fc6
I0309 23:23:17.526769 54739 net.cpp:148] Top shape: 256 4096 (1048576)
I0309 23:23:17.526793 54739 net.cpp:156] Memory required for data: 1735225344
I0309 23:23:17.526823 54739 layer_factory.hpp:77] Creating layer relu6
I0309 23:23:17.526855 54739 net.cpp:91] Creating Layer relu6
I0309 23:23:17.526883 54739 net.cpp:425] relu6 <- fc6
I0309 23:23:17.526911 54739 net.cpp:386] relu6 -> fc6 (in-place)
I0309 23:23:17.526945 54739 net.cpp:141] Setting up relu6
I0309 23:23:17.526974 54739 net.cpp:148] Top shape: 256 4096 (1048576)
I0309 23:23:17.526999 54739 net.cpp:156] Memory required for data: 1739419648
I0309 23:23:17.527024 54739 layer_factory.hpp:77] Creating layer drop6
I0309 23:23:17.527055 54739 net.cpp:91] Creating Layer drop6
I0309 23:23:17.527082 54739 net.cpp:425] drop6 <- fc6
I0309 23:23:17.527109 54739 net.cpp:386] drop6 -> fc6 (in-place)
I0309 23:23:17.527155 54739 net.cpp:141] Setting up drop6
I0309 23:23:17.527191 54739 net.cpp:148] Top shape: 256 4096 (1048576)
I0309 23:23:17.527217 54739 net.cpp:156] Memory required for data: 1743613952
I0309 23:23:17.527245 54739 layer_factory.hpp:77] Creating layer fc7
I0309 23:23:17.527278 54739 net.cpp:91] Creating Layer fc7
I0309 23:23:17.527305 54739 net.cpp:425] fc7 <- fc6
I0309 23:23:17.527335 54739 net.cpp:399] fc7 -> fc7
I0309 23:23:18.143862 54739 net.cpp:141] Setting up fc7
I0309 23:23:18.144018 54739 net.cpp:148] Top shape: 256 4096 (1048576)
I0309 23:23:18.144042 54739 net.cpp:156] Memory required for data: 1747808256
I0309 23:23:18.144068 54739 layer_factory.hpp:77] Creating layer relu7
I0309 23:23:18.144099 54739 net.cpp:91] Creating Layer relu7
I0309 23:23:18.144124 54739 net.cpp:425] relu7 <- fc7
I0309 23:23:18.144150 54739 net.cpp:386] relu7 -> fc7 (in-place)
I0309 23:23:18.144179 54739 net.cpp:141] Setting up relu7
I0309 23:23:18.144203 54739 net.cpp:148] Top shape: 256 4096 (1048576)
I0309 23:23:18.144223 54739 net.cpp:156] Memory required for data: 1752002560
I0309 23:23:18.144243 54739 layer_factory.hpp:77] Creating layer drop7
I0309 23:23:18.144273 54739 net.cpp:91] Creating Layer drop7
I0309 23:23:18.144294 54739 net.cpp:425] drop7 <- fc7
I0309 23:23:18.144318 54739 net.cpp:386] drop7 -> fc7 (in-place)
I0309 23:23:18.144356 54739 net.cpp:141] Setting up drop7
I0309 23:23:18.144383 54739 net.cpp:148] Top shape: 256 4096 (1048576)
I0309 23:23:18.144404 54739 net.cpp:156] Memory required for data: 1756196864
I0309 23:23:18.144424 54739 layer_factory.hpp:77] Creating layer fc8_25
I0309 23:23:18.144526 54739 net.cpp:91] Creating Layer fc8_25
I0309 23:23:18.144551 54739 net.cpp:425] fc8_25 <- fc7
I0309 23:23:18.144577 54739 net.cpp:399] fc8_25 -> fc8_25
I0309 23:23:18.148825 54739 net.cpp:141] Setting up fc8_25
I0309 23:23:18.148861 54739 net.cpp:148] Top shape: 256 25 (6400)
I0309 23:23:18.148885 54739 net.cpp:156] Memory required for data: 1756222464
I0309 23:23:18.148908 54739 layer_factory.hpp:77] Creating layer loss
I0309 23:23:18.148933 54739 net.cpp:91] Creating Layer loss
I0309 23:23:18.148955 54739 net.cpp:425] loss <- fc8_25
I0309 23:23:18.148977 54739 net.cpp:425] loss <- label
I0309 23:23:18.149005 54739 net.cpp:399] loss -> loss
I0309 23:23:18.149076 54739 layer_factory.hpp:77] Creating layer loss
…
I0309 23:23:18.152405 54739 net.cpp:313] The NetState phase (1) differed from the phase (0) specified by a rule in layer data
I0309 23:23:18.152598 54739 net.cpp:49] Initializing net from parameters: 
name: "CaffeNet"
state {
  phase: TEST
}
layer {
  name: "data"
  type: "Data"
  top: "data"
  top: "label"
  include {
    phase: TEST
  }
  transform_param {
    mirror: false
    crop_size: 227
    mean_file: "data/imagenet25/imagenet25_mean.protobinary"
  }
  data_param {
    source: "examples/imagenet25/val_lmdb"
    batch_size: 50
    backend: LMDB
  }
}
layer {
  name: "conv1"
  type: "Convolution"
  bottom: "data"
  top: "conv1"
  param {
    lr_mult: 0
    decay_mult: 1
  }
  param {
    lr_mult: 0
    decay_mult: 0
  }
  convolution_param {
    num_output: 96
    kernel_size: 11
    stride: 4
    weight_filler {
      type: "gaussian"
      std: 0.01
    }
    bias_filler {
      type: "constant"
      value: 0
    }
  }
}
layer {
  name: "relu1"
  type: "ReLU"
  bottom: "conv1"
  top: "conv1"
}
layer {
  name: "pool1"
  type: "Pooling"
  bottom: "conv1"
  top: "pool1"
  pooling_param {
    pool: MAX
    kernel_size: 3
    stride: 2
  }
}
layer {
  name: "norm1"
  type: "LRN"
  bottom: "pool1"
  top: "norm1"
  lrn_param {
    local_size: 5
    alpha: 0.0001
    beta: 0.75
  }
}
layer {
  name: "conv2"
  type: "Convolution"
  bottom: "norm1"
  top: "conv2"
  param {
    lr_mult: 0
    decay_mult: 1
  }
  param {
    lr_mult: 0
    decay_mult: 0
  }
  convolution_param {
    num_output: 256
    pad: 2
    kernel_size: 5
    group: 2
    weight_filler {
      type: "gaussian"
      std: 0.01
    }
    bias_filler {
      type: "constant"
      value: 1
    }
  }
}
layer {
  name: "relu2"
  type: "ReLU"
  bottom: "conv2"
  top: "conv2"
}
layer {
  name: "pool2"
  type: "Pooling"
  bottom: "conv2"
  top: "pool2"
  pooling_param {
    pool: MAX
    kernel_size: 3
    stride: 2
  }
}
layer {
  name: "norm2"
  type: "LRN"
  bottom: "pool2"
  top: "norm2"
  lrn_param {
    local_size: 5
    alpha: 0.0001
    beta: 0.75
  }
}
layer {
  name: "conv3"
  type: "Convolution"
  bottom: "norm2"
  top: "conv3"
  param {
    lr_mult: 0
    decay_mult: 1
  }
  param {
    lr_mult: 0
    decay_mult: 0
  }
  convolution_param {
    num_output: 384
    pad: 1
    kernel_size: 3
    weight_filler {
      type: "gaussian"
      std: 0.01
    }
    bias_filler {
      type: "constant"
      value: 0
    }
  }
}
layer {
  name: "relu3"
  type: "ReLU"
  bottom: "conv3"
  top: "conv3"
}
layer {
  name: "conv4"
  type: "Convolution"
  bottom: "conv3"
  top: "conv4"
  param {
    lr_mult: 0
    decay_mult: 1
  }
  param {
    lr_mult: 0
    decay_mult: 0
  }
  convolution_param {
    num_output: 384
    pad: 1
    kernel_size: 3
    group: 2
    weight_filler {
      type: "gaussian"
      std: 0.01
    }
    bias_filler {
      type: "constant"
      value: 1
    }
  }
}
layer {
  name: "relu4"
  type: "ReLU"
  bottom: "conv4"
  top: "conv4"
}
layer {
  name: "conv5"
  type: "Convolution"
  bottom: "conv4"
  top: "conv5"
  param {
    lr_mult: 0
    decay_mult: 1
  }
  param {
    lr_mult: 0
    decay_mult: 0
  }
  convolution_param {
    num_output: 256
    pad: 1
    kernel_size: 3
    group: 2
    weight_filler {
      type: "gaussian"
      std: 0.01
    }
    bias_filler {
      type: "constant"
      value: 1
    }
  }
}
layer {
  name: "relu5"
  type: "ReLU"
  bottom: "conv5"
  top: "conv5"
}
layer {
  name: "pool5"
  type: "Pooling"
  bottom: "conv5"
  top: "pool5"
  pooling_param {
    pool: MAX
    kernel_size: 3
    stride: 2
  }
}
layer {
  name: "fc6"
  type: "InnerProduct"
  bottom: "pool5"
  top: "fc6"
  param {
    lr_mult: 0
    decay_mult: 1
  }
  param {
    lr_mult: 0
    decay_mult: 0
  }
  inner_product_param {
    num_output: 4096
    weight_filler {
      type: "gaussian"
      std: 0.005
    }
    bias_filler {
      type: "constant"
      value: 1
    }
  }
}
layer {
  name: "relu6"
  type: "ReLU"
  bottom: "fc6"
  top: "fc6"
}
layer {
  name: "drop6"
  type: "Dropout"
  bottom: "fc6"
  top: "fc6"
  dropout_param {
    dropout_ratio: 0.5
  }
}
layer {
  name: "fc7"
  type: "InnerProduct"
  bottom: "fc6"
  top: "fc7"
  param {
    lr_mult: 1
    decay_mult: 1
  }
  param {
    lr_mult: 2
    decay_mult: 0
  }
  inner_product_param {
    num_output: 4096
    weight_filler {
      type: "gaussian"
      std: 0.005
    }
    bias_filler {
      type: "constant"
      value: 1
    }
  }
}
layer {
  name: "relu7"
  type: "ReLU"
  bottom: "fc7"
  top: "fc7"
}
layer {
  name: "drop7"
  type: "Dropout"
  bottom: "fc7"
  top: "fc7"
  dropout_param {
    dropout_ratio: 0.5
  }
}
layer {
  name: "fc8_25"
  type: "InnerProduct"
  bottom: "fc7"
  top: "fc8_25"
  param {
    lr_mult: 1
    decay_mult: 1
  }
  param {
    lr_mult: 2
    decay_mult: 0
  }
  inner_product_param {
    num_output: 25
    weight_filler {
      type: "gaussian"
      std: 0.01
    }
    bias_filler {
      type: "constant"
      value: 0
    }
  }
}
layer {
  name: "accuracy"
  type: "Accuracy"
  bottom: "fc8_25"
  bottom: "label"
  top: "accuracy"
  include {
    phase: TEST
  }
}
layer {
  name: "loss"
  type: "SoftmaxWithLoss"
  bottom: "fc8_25"
  bottom: "label"
  top: "loss"
}
I0309 23:23:18.152765 54739 layer_factory.hpp:77] Creating layer data
I0309 23:23:18.152937 54739 net.cpp:91] Creating Layer data
I0309 23:23:18.152971 54739 net.cpp:399] data -> data
I0309 23:23:18.153012 54739 net.cpp:399] data -> label
I0309 23:23:18.153043 54739 data_transformer.cpp:25] Loading mean file from: data/imagenet25/imagenet25_mean.protobinary
I0309 23:23:18.286051 54744 db_lmdb.cpp:38] Opened lmdb examples/imagenet25/val_lmdb
I0309 23:23:18.292737 54739 data_layer.cpp:41] output data size: 50,3,227,227
I0309 23:23:18.348938 54739 net.cpp:141] Setting up data
I0309 23:23:18.349052 54739 net.cpp:148] Top shape: 50 3 227 227 (7729350)
I0309 23:23:18.349079 54739 net.cpp:148] Top shape: 50 (50)
I0309 23:23:18.349100 54739 net.cpp:156] Memory required for data: 30917600
I0309 23:23:18.349124 54739 layer_factory.hpp:77] Creating layer label_data_1_split
I0309 23:23:18.349155 54739 net.cpp:91] Creating Layer label_data_1_split
I0309 23:23:18.349189 54739 net.cpp:425] label_data_1_split <- label
I0309 23:23:18.349215 54739 net.cpp:399] label_data_1_split -> label_data_1_split_0
I0309 23:23:18.349244 54739 net.cpp:399] label_data_1_split -> label_data_1_split_1
I0309 23:23:18.349325 54739 net.cpp:141] Setting up label_data_1_split
I0309 23:23:18.349355 54739 net.cpp:148] Top shape: 50 (50)
I0309 23:23:18.349377 54739 net.cpp:148] Top shape: 50 (50)
I0309 23:23:18.349397 54739 net.cpp:156] Memory required for data: 30918000
I0309 23:23:18.349418 54739 layer_factory.hpp:77] Creating layer conv1
I0309 23:23:18.349449 54739 net.cpp:91] Creating Layer conv1
I0309 23:23:18.349472 54739 net.cpp:425] conv1 <- data
I0309 23:23:18.349496 54739 net.cpp:399] conv1 -> conv1
I0309 23:23:18.352824 54739 net.cpp:141] Setting up conv1
I0309 23:23:18.352870 54739 net.cpp:148] Top shape: 50 96 55 55 (14520000)
I0309 23:23:18.352895 54739 net.cpp:156] Memory required for data: 88998000
I0309 23:23:18.352923 54739 layer_factory.hpp:77] Creating layer relu1
I0309 23:23:18.352951 54739 net.cpp:91] Creating Layer relu1
I0309 23:23:18.352972 54739 net.cpp:425] relu1 <- conv1
I0309 23:23:18.352994 54739 net.cpp:386] relu1 -> conv1 (in-place)
I0309 23:23:18.353020 54739 net.cpp:141] Setting up relu1
I0309 23:23:18.353044 54739 net.cpp:148] Top shape: 50 96 55 55 (14520000)
I0309 23:23:18.353065 54739 net.cpp:156] Memory required for data: 147078000
I0309 23:23:18.353085 54739 layer_factory.hpp:77] Creating layer pool1
I0309 23:23:18.353109 54739 net.cpp:91] Creating Layer pool1
I0309 23:23:18.353132 54739 net.cpp:425] pool1 <- conv1
I0309 23:23:18.353154 54739 net.cpp:399] pool1 -> pool1
I0309 23:23:18.353209 54739 net.cpp:141] Setting up pool1
I0309 23:23:18.353238 54739 net.cpp:148] Top shape: 50 96 27 27 (3499200)
I0309 23:23:18.353263 54739 net.cpp:156] Memory required for data: 161074800
I0309 23:23:18.353286 54739 layer_factory.hpp:77] Creating layer norm1
I0309 23:23:18.353312 54739 net.cpp:91] Creating Layer norm1
I0309 23:23:18.353332 54739 net.cpp:425] norm1 <- pool1
I0309 23:23:18.353355 54739 net.cpp:399] norm1 -> norm1
I0309 23:23:18.353406 54739 net.cpp:141] Setting up norm1
I0309 23:23:18.353435 54739 net.cpp:148] Top shape: 50 96 27 27 (3499200)
I0309 23:23:18.353454 54739 net.cpp:156] Memory required for data: 175071600
I0309 23:23:18.353474 54739 layer_factory.hpp:77] Creating layer conv2
I0309 23:23:18.353500 54739 net.cpp:91] Creating Layer conv2
I0309 23:23:18.353523 54739 net.cpp:425] conv2 <- norm1
I0309 23:23:18.353548 54739 net.cpp:399] conv2 -> conv2
I0309 23:23:18.364907 54739 net.cpp:141] Setting up conv2
I0309 23:23:18.364944 54739 net.cpp:148] Top shape: 50 256 27 27 (9331200)
I0309 23:23:18.364966 54739 net.cpp:156] Memory required for data: 212396400
I0309 23:23:18.364992 54739 layer_factory.hpp:77] Creating layer relu2
I0309 23:23:18.365046 54739 net.cpp:91] Creating Layer relu2
I0309 23:23:18.365105 54739 net.cpp:425] relu2 <- conv2
I0309 23:23:18.365133 54739 net.cpp:386] relu2 -> conv2 (in-place)
I0309 23:23:18.365160 54739 net.cpp:141] Setting up relu2
I0309 23:23:18.365183 54739 net.cpp:148] Top shape: 50 256 27 27 (9331200)
I0309 23:23:18.365203 54739 net.cpp:156] Memory required for data: 249721200
I0309 23:23:18.365224 54739 layer_factory.hpp:77] Creating layer pool2
I0309 23:23:18.365248 54739 net.cpp:91] Creating Layer pool2
I0309 23:23:18.365275 54739 net.cpp:425] pool2 <- conv2
I0309 23:23:18.365299 54739 net.cpp:399] pool2 -> pool2
I0309 23:23:18.365357 54739 net.cpp:141] Setting up pool2
I0309 23:23:18.365386 54739 net.cpp:148] Top shape: 50 256 13 13 (2163200)
I0309 23:23:18.365407 54739 net.cpp:156] Memory required for data: 258374000
I0309 23:23:18.365427 54739 layer_factory.hpp:77] Creating layer norm2
I0309 23:23:18.365450 54739 net.cpp:91] Creating Layer norm2
I0309 23:23:18.365470 54739 net.cpp:425] norm2 <- pool2
I0309 23:23:18.365497 54739 net.cpp:399] norm2 -> norm2
I0309 23:23:18.365550 54739 net.cpp:141] Setting up norm2
I0309 23:23:18.365579 54739 net.cpp:148] Top shape: 50 256 13 13 (2163200)
I0309 23:23:18.365600 54739 net.cpp:156] Memory required for data: 267026800
I0309 23:23:18.365620 54739 layer_factory.hpp:77] Creating layer conv3
I0309 23:23:18.365649 54739 net.cpp:91] Creating Layer conv3
I0309 23:23:18.365671 54739 net.cpp:425] conv3 <- norm2
I0309 23:23:18.365695 54739 net.cpp:399] conv3 -> conv3
I0309 23:23:18.398975 54739 net.cpp:141] Setting up conv3
I0309 23:23:18.399016 54739 net.cpp:148] Top shape: 50 384 13 13 (3244800)
I0309 23:23:18.399042 54739 net.cpp:156] Memory required for data: 280006000
I0309 23:23:18.399072 54739 layer_factory.hpp:77] Creating layer relu3
I0309 23:23:18.399101 54739 net.cpp:91] Creating Layer relu3
I0309 23:23:18.399124 54739 net.cpp:425] relu3 <- conv3
I0309 23:23:18.399149 54739 net.cpp:386] relu3 -> conv3 (in-place)
I0309 23:23:18.399188 54739 net.cpp:141] Setting up relu3
I0309 23:23:18.399214 54739 net.cpp:148] Top shape: 50 384 13 13 (3244800)
I0309 23:23:18.399233 54739 net.cpp:156] Memory required for data: 292985200
I0309 23:23:18.399260 54739 layer_factory.hpp:77] Creating layer conv4
I0309 23:23:18.399302 54739 net.cpp:91] Creating Layer conv4
I0309 23:23:18.399327 54739 net.cpp:425] conv4 <- conv3
I0309 23:23:18.399365 54739 net.cpp:399] conv4 -> conv4
I0309 23:23:18.424607 54739 net.cpp:141] Setting up conv4
I0309 23:23:18.424649 54739 net.cpp:148] Top shape: 50 384 13 13 (3244800)
I0309 23:23:18.424676 54739 net.cpp:156] Memory required for data: 305964400
I0309 23:23:18.424705 54739 layer_factory.hpp:77] Creating layer relu4
I0309 23:23:18.424731 54739 net.cpp:91] Creating Layer relu4
I0309 23:23:18.424752 54739 net.cpp:425] relu4 <- conv4
I0309 23:23:18.424775 54739 net.cpp:386] relu4 -> conv4 (in-place)
I0309 23:23:18.424801 54739 net.cpp:141] Setting up relu4
I0309 23:23:18.424829 54739 net.cpp:148] Top shape: 50 384 13 13 (3244800)
I0309 23:23:18.424854 54739 net.cpp:156] Memory required for data: 318943600
I0309 23:23:18.424880 54739 layer_factory.hpp:77] Creating layer conv5
I0309 23:23:18.424911 54739 net.cpp:91] Creating Layer conv5
I0309 23:23:18.424939 54739 net.cpp:425] conv5 <- conv4
I0309 23:23:18.424970 54739 net.cpp:399] conv5 -> conv5
I0309 23:23:18.441839 54739 net.cpp:141] Setting up conv5
I0309 23:23:18.441882 54739 net.cpp:148] Top shape: 50 256 13 13 (2163200)
I0309 23:23:18.441908 54739 net.cpp:156] Memory required for data: 327596400
I0309 23:23:18.441941 54739 layer_factory.hpp:77] Creating layer relu5
I0309 23:23:18.441973 54739 net.cpp:91] Creating Layer relu5
I0309 23:23:18.441998 54739 net.cpp:425] relu5 <- conv5
I0309 23:23:18.442021 54739 net.cpp:386] relu5 -> conv5 (in-place)
I0309 23:23:18.442047 54739 net.cpp:141] Setting up relu5
I0309 23:23:18.442070 54739 net.cpp:148] Top shape: 50 256 13 13 (2163200)
I0309 23:23:18.442095 54739 net.cpp:156] Memory required for data: 336249200
I0309 23:23:18.442133 54739 layer_factory.hpp:77] Creating layer pool5
I0309 23:23:18.442180 54739 net.cpp:91] Creating Layer pool5
I0309 23:23:18.442209 54739 net.cpp:425] pool5 <- conv5
I0309 23:23:18.442239 54739 net.cpp:399] pool5 -> pool5
I0309 23:23:18.442304 54739 net.cpp:141] Setting up pool5
I0309 23:23:18.442339 54739 net.cpp:148] Top shape: 50 256 6 6 (460800)
I0309 23:23:18.442364 54739 net.cpp:156] Memory required for data: 338092400
I0309 23:23:18.442390 54739 layer_factory.hpp:77] Creating layer fc6
I0309 23:23:18.442422 54739 net.cpp:91] Creating Layer fc6
I0309 23:23:18.442450 54739 net.cpp:425] fc6 <- pool5
I0309 23:23:18.442481 54739 net.cpp:399] fc6 -> fc6
I0309 23:23:19.852548 54739 net.cpp:141] Setting up fc6
I0309 23:23:19.852689 54739 net.cpp:148] Top shape: 50 4096 (204800)
I0309 23:23:19.852711 54739 net.cpp:156] Memory required for data: 338911600
I0309 23:23:19.852740 54739 layer_factory.hpp:77] Creating layer relu6
I0309 23:23:19.852768 54739 net.cpp:91] Creating Layer relu6
I0309 23:23:19.852790 54739 net.cpp:425] relu6 <- fc6
I0309 23:23:19.852821 54739 net.cpp:386] relu6 -> fc6 (in-place)
I0309 23:23:19.852854 54739 net.cpp:141] Setting up relu6
I0309 23:23:19.852877 54739 net.cpp:148] Top shape: 50 4096 (204800)
I0309 23:23:19.852897 54739 net.cpp:156] Memory required for data: 339730800
I0309 23:23:19.852917 54739 layer_factory.hpp:77] Creating layer drop6
I0309 23:23:19.852942 54739 net.cpp:91] Creating Layer drop6
I0309 23:23:19.852963 54739 net.cpp:425] drop6 <- fc6
I0309 23:23:19.852985 54739 net.cpp:386] drop6 -> fc6 (in-place)
I0309 23:23:19.853034 54739 net.cpp:141] Setting up drop6
I0309 23:23:19.853062 54739 net.cpp:148] Top shape: 50 4096 (204800)
I0309 23:23:19.853083 54739 net.cpp:156] Memory required for data: 340550000
I0309 23:23:19.853103 54739 layer_factory.hpp:77] Creating layer fc7
I0309 23:23:19.853132 54739 net.cpp:91] Creating Layer fc7
I0309 23:23:19.853154 54739 net.cpp:425] fc7 <- fc6
I0309 23:23:19.853178 54739 net.cpp:399] fc7 -> fc7
I0309 23:23:20.473850 54739 net.cpp:141] Setting up fc7
I0309 23:23:20.473989 54739 net.cpp:148] Top shape: 50 4096 (204800)
I0309 23:23:20.474011 54739 net.cpp:156] Memory required for data: 341369200
I0309 23:23:20.474040 54739 layer_factory.hpp:77] Creating layer relu7
I0309 23:23:20.474068 54739 net.cpp:91] Creating Layer relu7
I0309 23:23:20.474092 54739 net.cpp:425] relu7 <- fc7
I0309 23:23:20.474120 54739 net.cpp:386] relu7 -> fc7 (in-place)
I0309 23:23:20.474153 54739 net.cpp:141] Setting up relu7
I0309 23:23:20.474176 54739 net.cpp:148] Top shape: 50 4096 (204800)
I0309 23:23:20.474197 54739 net.cpp:156] Memory required for data: 342188400
I0309 23:23:20.474217 54739 layer_factory.hpp:77] Creating layer drop7
I0309 23:23:20.474242 54739 net.cpp:91] Creating Layer drop7
I0309 23:23:20.474268 54739 net.cpp:425] drop7 <- fc7
I0309 23:23:20.474295 54739 net.cpp:386] drop7 -> fc7 (in-place)
I0309 23:23:20.474344 54739 net.cpp:141] Setting up drop7
I0309 23:23:20.474373 54739 net.cpp:148] Top shape: 50 4096 (204800)
I0309 23:23:20.474395 54739 net.cpp:156] Memory required for data: 343007600
I0309 23:23:20.474416 54739 layer_factory.hpp:77] Creating layer fc8_25
I0309 23:23:20.474443 54739 net.cpp:91] Creating Layer fc8_25
I0309 23:23:20.474467 54739 net.cpp:425] fc8_25 <- fc7
I0309 23:23:20.474489 54739 net.cpp:399] fc8_25 -> fc8_25
I0309 23:23:20.478220 54739 net.cpp:141] Setting up fc8_25
I0309 23:23:20.478258 54739 net.cpp:148] Top shape: 50 25 (1250)
I0309 23:23:20.478281 54739 net.cpp:156] Memory required for data: 343012600
I0309 23:23:20.478305 54739 layer_factory.hpp:77] Creating layer fc8_25_fc8_25_0_split
I0309 23:23:20.478333 54739 net.cpp:91] Creating Layer fc8_25_fc8_25_0_split
I0309 23:23:20.478356 54739 net.cpp:425] fc8_25_fc8_25_0_split <- fc8_25
I0309 23:23:20.478379 54739 net.cpp:399] fc8_25_fc8_25_0_split -> fc8_25_fc8_25_0_split_0
I0309 23:23:20.478405 54739 net.cpp:399] fc8_25_fc8_25_0_split -> fc8_25_fc8_25_0_split_1
I0309 23:23:20.478459 54739 net.cpp:141] Setting up fc8_25_fc8_25_0_split
I0309 23:23:20.478489 54739 net.cpp:148] Top shape: 50 25 (1250)
I0309 23:23:20.478579 54739 net.cpp:148] Top shape: 50 25 (1250)
I0309 23:23:20.478602 54739 net.cpp:156] Memory required for data: 343022600
I0309 23:23:20.478623 54739 layer_factory.hpp:77] Creating layer accuracy
I0309 23:23:20.478647 54739 net.cpp:91] Creating Layer accuracy
I0309 23:23:20.478668 54739 net.cpp:425] accuracy <- fc8_25_fc8_25_0_split_0
I0309 23:23:20.478690 54739 net.cpp:425] accuracy <- label_data_1_split_0
I0309 23:23:20.478718 54739 net.cpp:399] accuracy -> accuracy
…
